<?xml version="1.0"?>
<net name="Model0" version="11">
	<layers>
		<layer id="1" name="input1" type="Parameter" version="opset1">
			<data shape="1,3,468,625" element_type="f32" />
			<output>
				<port id="0" precision="FP32" names="input1">
					<dim>1</dim>
					<dim>3</dim>
					<dim>468</dim>
					<dim>625</dim>
				</port>
			</output>
		</layer>
		<layer id="0" name="input2" type="Parameter" version="opset1">
			<data shape="1,3,468,625" element_type="f32" />
			<output>
				<port id="0" precision="FP32" names="input2">
					<dim>1</dim>
					<dim>3</dim>
					<dim>468</dim>
					<dim>625</dim>
				</port>
			</output>
		</layer>
		<layer id="2" name="Constant_111062_compressed" type="Const" version="opset1">
			<data element_type="f16" shape="1, 1, 1, 1" offset="0" size="2" />
			<output>
				<port id="0" precision="FP16">
					<dim>1</dim>
					<dim>1</dim>
					<dim>1</dim>
					<dim>1</dim>
				</port>
			</output>
		</layer>
		<layer id="3" name="Constant_111062" type="Convert" version="opset1">
			<data destination_type="f32" />
			<rt_info>
				<attribute name="decompression" version="0" />
			</rt_info>
			<input>
				<port id="0" precision="FP16">
					<dim>1</dim>
					<dim>1</dim>
					<dim>1</dim>
					<dim>1</dim>
				</port>
			</input>
			<output>
				<port id="1" precision="FP32">
					<dim>1</dim>
					<dim>1</dim>
					<dim>1</dim>
					<dim>1</dim>
				</port>
			</output>
		</layer>
		<layer id="4" name="self.encoder.patch_embed1.proj.module.weight_compressed" type="Const" version="opset1">
			<data element_type="f16" shape="64, 3, 7, 7" offset="2" size="18816" />
			<output>
				<port id="0" precision="FP16" names="self.encoder.patch_embed1.proj.module.weight">
					<dim>64</dim>
					<dim>3</dim>
					<dim>7</dim>
					<dim>7</dim>
				</port>
			</output>
		</layer>
		<layer id="5" name="self.encoder.patch_embed1.proj.module.weight" type="Convert" version="opset1">
			<data destination_type="f32" />
			<rt_info>
				<attribute name="decompression" version="0" />
			</rt_info>
			<input>
				<port id="0" precision="FP16">
					<dim>64</dim>
					<dim>3</dim>
					<dim>7</dim>
					<dim>7</dim>
				</port>
			</input>
			<output>
				<port id="1" precision="FP32">
					<dim>64</dim>
					<dim>3</dim>
					<dim>7</dim>
					<dim>7</dim>
				</port>
			</output>
		</layer>
		<layer id="6" name="__module.encoder.patch_embed1.proj.module/aten::_convolution/Convolution" type="Convolution" version="opset1">
			<data strides="4, 4" dilations="1, 1" pads_begin="3, 3" pads_end="3, 3" auto_pad="explicit" />
			<input>
				<port id="0" precision="FP32">
					<dim>1</dim>
					<dim>3</dim>
					<dim>468</dim>
					<dim>625</dim>
				</port>
				<port id="1" precision="FP32">
					<dim>64</dim>
					<dim>3</dim>
					<dim>7</dim>
					<dim>7</dim>
				</port>
			</input>
			<output>
				<port id="2" precision="FP32">
					<dim>1</dim>
					<dim>64</dim>
					<dim>117</dim>
					<dim>157</dim>
				</port>
			</output>
		</layer>
		<layer id="7" name="__module.encoder.patch_embed1.proj.module/aten::_convolution/Reshape_compressed" type="Const" version="opset1">
			<data element_type="f16" shape="1, 64, 1, 1" offset="18818" size="128" />
			<output>
				<port id="0" precision="FP16">
					<dim>1</dim>
					<dim>64</dim>
					<dim>1</dim>
					<dim>1</dim>
				</port>
			</output>
		</layer>
		<layer id="8" name="__module.encoder.patch_embed1.proj.module/aten::_convolution/Reshape" type="Convert" version="opset1">
			<data destination_type="f32" />
			<rt_info>
				<attribute name="decompression" version="0" />
			</rt_info>
			<input>
				<port id="0" precision="FP16">
					<dim>1</dim>
					<dim>64</dim>
					<dim>1</dim>
					<dim>1</dim>
				</port>
			</input>
			<output>
				<port id="1" precision="FP32">
					<dim>1</dim>
					<dim>64</dim>
					<dim>1</dim>
					<dim>1</dim>
				</port>
			</output>
		</layer>
		<layer id="9" name="__module.encoder.patch_embed1.proj.module/aten::_convolution/Add" type="Add" version="opset1">
			<data auto_broadcast="numpy" />
			<input>
				<port id="0" precision="FP32">
					<dim>1</dim>
					<dim>64</dim>
					<dim>117</dim>
					<dim>157</dim>
				</port>
				<port id="1" precision="FP32">
					<dim>1</dim>
					<dim>64</dim>
					<dim>1</dim>
					<dim>1</dim>
				</port>
			</input>
			<output>
				<port id="2" precision="FP32" names="123,132,x_.1">
					<dim>1</dim>
					<dim>64</dim>
					<dim>117</dim>
					<dim>157</dim>
				</port>
			</output>
		</layer>
		<layer id="10" name="Constant_114085" type="Const" version="opset1">
			<data element_type="i64" shape="3" offset="18946" size="24" />
			<rt_info>
				<attribute name="precise" version="0" />
			</rt_info>
			<output>
				<port id="0" precision="I64">
					<dim>3</dim>
				</port>
			</output>
		</layer>
		<layer id="11" name="__module.encoder.patch_embed1/aten::flatten/Reshape" type="Reshape" version="opset1">
			<data special_zero="true" />
			<input>
				<port id="0" precision="FP32">
					<dim>1</dim>
					<dim>64</dim>
					<dim>117</dim>
					<dim>157</dim>
				</port>
				<port id="1" precision="I64">
					<dim>3</dim>
				</port>
			</input>
			<output>
				<port id="2" precision="FP32" names="136">
					<dim>1</dim>
					<dim>64</dim>
					<dim>18369</dim>
				</port>
			</output>
		</layer>
		<layer id="12" name="__module.encoder.patch_embed1/aten::transpose/Constant" type="Const" version="opset1">
			<data element_type="i32" shape="3" offset="18970" size="12" />
			<output>
				<port id="0" precision="I32">
					<dim>3</dim>
				</port>
			</output>
		</layer>
		<layer id="13" name="__module.encoder.patch_embed1/aten::transpose/Transpose" type="Transpose" version="opset1">
			<input>
				<port id="0" precision="FP32">
					<dim>1</dim>
					<dim>64</dim>
					<dim>18369</dim>
				</port>
				<port id="1" precision="I32">
					<dim>3</dim>
				</port>
			</input>
			<output>
				<port id="2" precision="FP32" names="137,input.1">
					<dim>1</dim>
					<dim>18369</dim>
					<dim>64</dim>
				</port>
			</output>
		</layer>
		<layer id="14" name="__module.encoder.patch_embed1.norm.ln_0/aten::layer_norm/Multiply" type="Const" version="opset1">
			<data element_type="i32" shape="1" offset="18982" size="4" />
			<output>
				<port id="0" precision="I32">
					<dim>1</dim>
				</port>
			</output>
		</layer>
		<layer id="15" name="__module.encoder.patch_embed1.norm.ln_0/aten::layer_norm/MVN" type="MVN" version="opset6">
			<data eps="9.9999999747524271e-07" normalize_variance="true" eps_mode="INSIDE_SQRT" />
			<input>
				<port id="0" precision="FP32">
					<dim>1</dim>
					<dim>18369</dim>
					<dim>64</dim>
				</port>
				<port id="1" precision="I32">
					<dim>1</dim>
				</port>
			</input>
			<output>
				<port id="2" precision="FP32">
					<dim>1</dim>
					<dim>18369</dim>
					<dim>64</dim>
				</port>
			</output>
		</layer>
		<layer id="16" name="Constant_110375_compressed" type="Const" version="opset1">
			<data element_type="f16" shape="1, 1, 64" offset="18986" size="128" />
			<output>
				<port id="0" precision="FP16">
					<dim>1</dim>
					<dim>1</dim>
					<dim>64</dim>
				</port>
			</output>
		</layer>
		<layer id="17" name="Constant_110375" type="Convert" version="opset1">
			<data destination_type="f32" />
			<rt_info>
				<attribute name="decompression" version="0" />
			</rt_info>
			<input>
				<port id="0" precision="FP16">
					<dim>1</dim>
					<dim>1</dim>
					<dim>64</dim>
				</port>
			</input>
			<output>
				<port id="1" precision="FP32">
					<dim>1</dim>
					<dim>1</dim>
					<dim>64</dim>
				</port>
			</output>
		</layer>
		<layer id="18" name="__module.encoder.patch_embed1.norm.ln_0/aten::layer_norm/Multiply_1" type="Multiply" version="opset1">
			<data auto_broadcast="numpy" />
			<input>
				<port id="0" precision="FP32">
					<dim>1</dim>
					<dim>18369</dim>
					<dim>64</dim>
				</port>
				<port id="1" precision="FP32">
					<dim>1</dim>
					<dim>1</dim>
					<dim>64</dim>
				</port>
			</input>
			<output>
				<port id="2" precision="FP32">
					<dim>1</dim>
					<dim>18369</dim>
					<dim>64</dim>
				</port>
			</output>
		</layer>
		<layer id="19" name="Constant_110376_compressed" type="Const" version="opset1">
			<data element_type="f16" shape="1, 1, 64" offset="19114" size="128" />
			<output>
				<port id="0" precision="FP16">
					<dim>1</dim>
					<dim>1</dim>
					<dim>64</dim>
				</port>
			</output>
		</layer>
		<layer id="20" name="Constant_110376" type="Convert" version="opset1">
			<data destination_type="f32" />
			<rt_info>
				<attribute name="decompression" version="0" />
			</rt_info>
			<input>
				<port id="0" precision="FP16">
					<dim>1</dim>
					<dim>1</dim>
					<dim>64</dim>
				</port>
			</input>
			<output>
				<port id="1" precision="FP32">
					<dim>1</dim>
					<dim>1</dim>
					<dim>64</dim>
				</port>
			</output>
		</layer>
		<layer id="21" name="__module.encoder.patch_embed1.norm.ln_0/aten::layer_norm/Add" type="Add" version="opset1">
			<data auto_broadcast="numpy" />
			<input>
				<port id="0" precision="FP32">
					<dim>1</dim>
					<dim>18369</dim>
					<dim>64</dim>
				</port>
				<port id="1" precision="FP32">
					<dim>1</dim>
					<dim>1</dim>
					<dim>64</dim>
				</port>
			</input>
			<output>
				<port id="2" precision="FP32" names="145,151,154,input.5">
					<dim>1</dim>
					<dim>18369</dim>
					<dim>64</dim>
				</port>
			</output>
		</layer>
		<layer id="22" name="__module.encoder.block1.0.norm1.ln_0/aten::layer_norm/Multiply" type="Const" version="opset1">
			<data element_type="i32" shape="1" offset="18982" size="4" />
			<output>
				<port id="0" precision="I32">
					<dim>1</dim>
				</port>
			</output>
		</layer>
		<layer id="23" name="__module.encoder.block1.0.norm1.ln_0/aten::layer_norm/MVN" type="MVN" version="opset6">
			<data eps="9.9999999747524271e-07" normalize_variance="true" eps_mode="INSIDE_SQRT" />
			<input>
				<port id="0" precision="FP32">
					<dim>1</dim>
					<dim>18369</dim>
					<dim>64</dim>
				</port>
				<port id="1" precision="I32">
					<dim>1</dim>
				</port>
			</input>
			<output>
				<port id="2" precision="FP32">
					<dim>1</dim>
					<dim>18369</dim>
					<dim>64</dim>
				</port>
			</output>
		</layer>
		<layer id="24" name="Constant_110377_compressed" type="Const" version="opset1">
			<data element_type="f16" shape="1, 1, 64" offset="19242" size="128" />
			<output>
				<port id="0" precision="FP16">
					<dim>1</dim>
					<dim>1</dim>
					<dim>64</dim>
				</port>
			</output>
		</layer>
		<layer id="25" name="Constant_110377" type="Convert" version="opset1">
			<data destination_type="f32" />
			<rt_info>
				<attribute name="decompression" version="0" />
			</rt_info>
			<input>
				<port id="0" precision="FP16">
					<dim>1</dim>
					<dim>1</dim>
					<dim>64</dim>
				</port>
			</input>
			<output>
				<port id="1" precision="FP32">
					<dim>1</dim>
					<dim>1</dim>
					<dim>64</dim>
				</port>
			</output>
		</layer>
		<layer id="26" name="__module.encoder.block1.0.norm1.ln_0/aten::layer_norm/Multiply_1" type="Multiply" version="opset1">
			<data auto_broadcast="numpy" />
			<input>
				<port id="0" precision="FP32">
					<dim>1</dim>
					<dim>18369</dim>
					<dim>64</dim>
				</port>
				<port id="1" precision="FP32">
					<dim>1</dim>
					<dim>1</dim>
					<dim>64</dim>
				</port>
			</input>
			<output>
				<port id="2" precision="FP32">
					<dim>1</dim>
					<dim>18369</dim>
					<dim>64</dim>
				</port>
			</output>
		</layer>
		<layer id="27" name="Constant_110378_compressed" type="Const" version="opset1">
			<data element_type="f16" shape="1, 1, 64" offset="19370" size="128" />
			<output>
				<port id="0" precision="FP16">
					<dim>1</dim>
					<dim>1</dim>
					<dim>64</dim>
				</port>
			</output>
		</layer>
		<layer id="28" name="Constant_110378" type="Convert" version="opset1">
			<data destination_type="f32" />
			<rt_info>
				<attribute name="decompression" version="0" />
			</rt_info>
			<input>
				<port id="0" precision="FP16">
					<dim>1</dim>
					<dim>1</dim>
					<dim>64</dim>
				</port>
			</input>
			<output>
				<port id="1" precision="FP32">
					<dim>1</dim>
					<dim>1</dim>
					<dim>64</dim>
				</port>
			</output>
		</layer>
		<layer id="29" name="__module.encoder.block1.0.norm1.ln_0/aten::layer_norm/Add" type="Add" version="opset1">
			<data auto_broadcast="numpy" />
			<input>
				<port id="0" precision="FP32">
					<dim>1</dim>
					<dim>18369</dim>
					<dim>64</dim>
				</port>
				<port id="1" precision="FP32">
					<dim>1</dim>
					<dim>1</dim>
					<dim>64</dim>
				</port>
			</input>
			<output>
				<port id="2" precision="FP32" names="262,268,input.45">
					<dim>1</dim>
					<dim>18369</dim>
					<dim>64</dim>
				</port>
			</output>
		</layer>
		<layer id="30" name="self.encoder.block1.0.attn.q.module.weight_compressed" type="Const" version="opset1">
			<data element_type="f16" shape="64, 64" offset="19498" size="8192" />
			<output>
				<port id="0" precision="FP16" names="self.encoder.block1.0.attn.q.module.weight">
					<dim>64</dim>
					<dim>64</dim>
				</port>
			</output>
		</layer>
		<layer id="31" name="self.encoder.block1.0.attn.q.module.weight" type="Convert" version="opset1">
			<data destination_type="f32" />
			<rt_info>
				<attribute name="decompression" version="0" />
			</rt_info>
			<input>
				<port id="0" precision="FP16">
					<dim>64</dim>
					<dim>64</dim>
				</port>
			</input>
			<output>
				<port id="1" precision="FP32">
					<dim>64</dim>
					<dim>64</dim>
				</port>
			</output>
		</layer>
		<layer id="32" name="__module.encoder.block1.0.attn.q.module/aten::linear/MatMul" type="MatMul" version="opset1">
			<data transpose_a="false" transpose_b="true" />
			<input>
				<port id="0" precision="FP32">
					<dim>1</dim>
					<dim>18369</dim>
					<dim>64</dim>
				</port>
				<port id="1" precision="FP32">
					<dim>64</dim>
					<dim>64</dim>
				</port>
			</input>
			<output>
				<port id="2" precision="FP32">
					<dim>1</dim>
					<dim>18369</dim>
					<dim>64</dim>
				</port>
			</output>
		</layer>
		<layer id="33" name="Constant_110379_compressed" type="Const" version="opset1">
			<data element_type="f16" shape="1, 1, 64" offset="27690" size="128" />
			<output>
				<port id="0" precision="FP16">
					<dim>1</dim>
					<dim>1</dim>
					<dim>64</dim>
				</port>
			</output>
		</layer>
		<layer id="34" name="Constant_110379" type="Convert" version="opset1">
			<data destination_type="f32" />
			<rt_info>
				<attribute name="decompression" version="0" />
			</rt_info>
			<input>
				<port id="0" precision="FP16">
					<dim>1</dim>
					<dim>1</dim>
					<dim>64</dim>
				</port>
			</input>
			<output>
				<port id="1" precision="FP32">
					<dim>1</dim>
					<dim>1</dim>
					<dim>64</dim>
				</port>
			</output>
		</layer>
		<layer id="35" name="__module.encoder.block1.0.attn.q.module/aten::linear/Add" type="Add" version="opset1">
			<data auto_broadcast="numpy" />
			<input>
				<port id="0" precision="FP32">
					<dim>1</dim>
					<dim>18369</dim>
					<dim>64</dim>
				</port>
				<port id="1" precision="FP32">
					<dim>1</dim>
					<dim>1</dim>
					<dim>64</dim>
				</port>
			</input>
			<output>
				<port id="2" precision="FP32" names="282,287,q_.1">
					<dim>1</dim>
					<dim>18369</dim>
					<dim>64</dim>
				</port>
			</output>
		</layer>
		<layer id="36" name="Constant_114086" type="Const" version="opset1">
			<data element_type="i64" shape="4" offset="27818" size="32" />
			<rt_info>
				<attribute name="precise" version="0" />
			</rt_info>
			<output>
				<port id="0" precision="I64">
					<dim>4</dim>
				</port>
			</output>
		</layer>
		<layer id="37" name="__module.encoder.block1.0.attn/aten::reshape/Reshape" type="Reshape" version="opset1">
			<data special_zero="true" />
			<input>
				<port id="0" precision="FP32">
					<dim>1</dim>
					<dim>18369</dim>
					<dim>64</dim>
				</port>
				<port id="1" precision="I64">
					<dim>4</dim>
				</port>
			</input>
			<output>
				<port id="2" precision="FP32" names="292">
					<dim>1</dim>
					<dim>18369</dim>
					<dim>1</dim>
					<dim>64</dim>
				</port>
			</output>
		</layer>
		<layer id="38" name="Constant_107345" type="Const" version="opset1">
			<data element_type="i64" shape="4" offset="27850" size="32" />
			<rt_info>
				<attribute name="precise" version="0" />
			</rt_info>
			<output>
				<port id="0" precision="I64">
					<dim>4</dim>
				</port>
			</output>
		</layer>
		<layer id="39" name="__module.encoder.block1.0.attn/aten::permute/Transpose" type="Reshape" version="opset1">
			<data special_zero="true" />
			<input>
				<port id="0" precision="FP32">
					<dim>1</dim>
					<dim>18369</dim>
					<dim>1</dim>
					<dim>64</dim>
				</port>
				<port id="1" precision="I64">
					<dim>4</dim>
				</port>
			</input>
			<output>
				<port id="2" precision="FP32" names="294,q_.5">
					<dim>1</dim>
					<dim>1</dim>
					<dim>18369</dim>
					<dim>64</dim>
				</port>
			</output>
		</layer>
		<layer id="40" name="__module.encoder.block1.0.attn/aten::permute/Mod_1" type="Const" version="opset1">
			<data element_type="i64" shape="3" offset="27882" size="24" />
			<output>
				<port id="0" precision="I64">
					<dim>3</dim>
				</port>
			</output>
		</layer>
		<layer id="41" name="__module.encoder.block1.0.attn/aten::permute/Transpose_1" type="Transpose" version="opset1">
			<input>
				<port id="0" precision="FP32">
					<dim>1</dim>
					<dim>18369</dim>
					<dim>64</dim>
				</port>
				<port id="1" precision="I64">
					<dim>3</dim>
				</port>
			</input>
			<output>
				<port id="2" precision="FP32" names="302">
					<dim>1</dim>
					<dim>64</dim>
					<dim>18369</dim>
				</port>
			</output>
		</layer>
		<layer id="42" name="__module.encoder.patch_embed1/aten::flatten/ShapeOf" type="ShapeOf" version="opset3">
			<data output_type="i32" />
			<input>
				<port id="0" precision="FP32">
					<dim>1</dim>
					<dim>64</dim>
					<dim>117</dim>
					<dim>157</dim>
				</port>
			</input>
			<output>
				<port id="1" precision="I32">
					<dim>4</dim>
				</port>
			</output>
		</layer>
		<layer id="43" name="Convert_113106" type="Convert" version="opset1">
			<data destination_type="i64" />
			<input>
				<port id="0" precision="I32">
					<dim>4</dim>
				</port>
			</input>
			<output>
				<port id="1" precision="I64">
					<dim>4</dim>
				</port>
			</output>
		</layer>
		<layer id="44" name="__module.encoder.block1.0.attn/aten::reshape/Reshape_1" type="Reshape" version="opset1">
			<data special_zero="false" />
			<input>
				<port id="0" precision="FP32">
					<dim>1</dim>
					<dim>64</dim>
					<dim>18369</dim>
				</port>
				<port id="1" precision="I64">
					<dim>4</dim>
				</port>
			</input>
			<output>
				<port id="2" precision="FP32" names="304,input.49">
					<dim>1</dim>
					<dim>64</dim>
					<dim>117</dim>
					<dim>157</dim>
				</port>
			</output>
		</layer>
		<layer id="45" name="self.encoder.block1.0.attn.sr.module.weight_compressed" type="Const" version="opset1">
			<data element_type="f16" shape="64, 64, 8, 8" offset="27906" size="524288" />
			<output>
				<port id="0" precision="FP16" names="self.encoder.block1.0.attn.sr.module.weight">
					<dim>64</dim>
					<dim>64</dim>
					<dim>8</dim>
					<dim>8</dim>
				</port>
			</output>
		</layer>
		<layer id="46" name="self.encoder.block1.0.attn.sr.module.weight" type="Convert" version="opset1">
			<data destination_type="f32" />
			<rt_info>
				<attribute name="decompression" version="0" />
			</rt_info>
			<input>
				<port id="0" precision="FP16">
					<dim>64</dim>
					<dim>64</dim>
					<dim>8</dim>
					<dim>8</dim>
				</port>
			</input>
			<output>
				<port id="1" precision="FP32">
					<dim>64</dim>
					<dim>64</dim>
					<dim>8</dim>
					<dim>8</dim>
				</port>
			</output>
		</layer>
		<layer id="47" name="__module.encoder.block1.0.attn.sr.module/aten::_convolution/Convolution" type="Convolution" version="opset1">
			<data strides="8, 8" dilations="1, 1" pads_begin="0, 0" pads_end="0, 0" auto_pad="explicit" />
			<input>
				<port id="0" precision="FP32">
					<dim>1</dim>
					<dim>64</dim>
					<dim>117</dim>
					<dim>157</dim>
				</port>
				<port id="1" precision="FP32">
					<dim>64</dim>
					<dim>64</dim>
					<dim>8</dim>
					<dim>8</dim>
				</port>
			</input>
			<output>
				<port id="2" precision="FP32">
					<dim>1</dim>
					<dim>64</dim>
					<dim>14</dim>
					<dim>19</dim>
				</port>
			</output>
		</layer>
		<layer id="48" name="__module.encoder.block1.0.attn.sr.module/aten::_convolution/Reshape_compressed" type="Const" version="opset1">
			<data element_type="f16" shape="1, 64, 1, 1" offset="552194" size="128" />
			<output>
				<port id="0" precision="FP16">
					<dim>1</dim>
					<dim>64</dim>
					<dim>1</dim>
					<dim>1</dim>
				</port>
			</output>
		</layer>
		<layer id="49" name="__module.encoder.block1.0.attn.sr.module/aten::_convolution/Reshape" type="Convert" version="opset1">
			<data destination_type="f32" />
			<rt_info>
				<attribute name="decompression" version="0" />
			</rt_info>
			<input>
				<port id="0" precision="FP16">
					<dim>1</dim>
					<dim>64</dim>
					<dim>1</dim>
					<dim>1</dim>
				</port>
			</input>
			<output>
				<port id="1" precision="FP32">
					<dim>1</dim>
					<dim>64</dim>
					<dim>1</dim>
					<dim>1</dim>
				</port>
			</output>
		</layer>
		<layer id="50" name="__module.encoder.block1.0.attn.sr.module/aten::_convolution/Add" type="Add" version="opset1">
			<data auto_broadcast="numpy" />
			<input>
				<port id="0" precision="FP32">
					<dim>1</dim>
					<dim>64</dim>
					<dim>14</dim>
					<dim>19</dim>
				</port>
				<port id="1" precision="FP32">
					<dim>1</dim>
					<dim>64</dim>
					<dim>1</dim>
					<dim>1</dim>
				</port>
			</input>
			<output>
				<port id="2" precision="FP32" names="316,325,x_.5">
					<dim>1</dim>
					<dim>64</dim>
					<dim>14</dim>
					<dim>19</dim>
				</port>
			</output>
		</layer>
		<layer id="51" name="Constant_114087" type="Const" version="opset1">
			<data element_type="i64" shape="3" offset="18946" size="24" />
			<rt_info>
				<attribute name="precise" version="0" />
			</rt_info>
			<output>
				<port id="0" precision="I64">
					<dim>3</dim>
				</port>
			</output>
		</layer>
		<layer id="52" name="__module.encoder.block1.0.attn/aten::reshape/Reshape_2" type="Reshape" version="opset1">
			<data special_zero="true" />
			<input>
				<port id="0" precision="FP32">
					<dim>1</dim>
					<dim>64</dim>
					<dim>14</dim>
					<dim>19</dim>
				</port>
				<port id="1" precision="I64">
					<dim>3</dim>
				</port>
			</input>
			<output>
				<port id="2" precision="FP32" names="328">
					<dim>1</dim>
					<dim>64</dim>
					<dim>266</dim>
				</port>
			</output>
		</layer>
		<layer id="53" name="__module.encoder.block1.0.attn/aten::permute/Mod_2" type="Const" version="opset1">
			<data element_type="i64" shape="3" offset="27882" size="24" />
			<output>
				<port id="0" precision="I64">
					<dim>3</dim>
				</port>
			</output>
		</layer>
		<layer id="54" name="__module.encoder.block1.0.attn/aten::permute/Transpose_2" type="Transpose" version="opset1">
			<input>
				<port id="0" precision="FP32">
					<dim>1</dim>
					<dim>64</dim>
					<dim>266</dim>
				</port>
				<port id="1" precision="I64">
					<dim>3</dim>
				</port>
			</input>
			<output>
				<port id="2" precision="FP32" names="330,input.53">
					<dim>1</dim>
					<dim>266</dim>
					<dim>64</dim>
				</port>
			</output>
		</layer>
		<layer id="55" name="__module.encoder.block1.0.attn.norm.ln_0/aten::layer_norm/Multiply" type="Const" version="opset1">
			<data element_type="i32" shape="1" offset="18982" size="4" />
			<output>
				<port id="0" precision="I32">
					<dim>1</dim>
				</port>
			</output>
		</layer>
		<layer id="56" name="__module.encoder.block1.0.attn.norm.ln_0/aten::layer_norm/MVN" type="MVN" version="opset6">
			<data eps="9.9999999747524271e-07" normalize_variance="true" eps_mode="INSIDE_SQRT" />
			<input>
				<port id="0" precision="FP32">
					<dim>1</dim>
					<dim>266</dim>
					<dim>64</dim>
				</port>
				<port id="1" precision="I32">
					<dim>1</dim>
				</port>
			</input>
			<output>
				<port id="2" precision="FP32">
					<dim>1</dim>
					<dim>266</dim>
					<dim>64</dim>
				</port>
			</output>
		</layer>
		<layer id="57" name="Constant_110380_compressed" type="Const" version="opset1">
			<data element_type="f16" shape="1, 1, 64" offset="552322" size="128" />
			<output>
				<port id="0" precision="FP16">
					<dim>1</dim>
					<dim>1</dim>
					<dim>64</dim>
				</port>
			</output>
		</layer>
		<layer id="58" name="Constant_110380" type="Convert" version="opset1">
			<data destination_type="f32" />
			<rt_info>
				<attribute name="decompression" version="0" />
			</rt_info>
			<input>
				<port id="0" precision="FP16">
					<dim>1</dim>
					<dim>1</dim>
					<dim>64</dim>
				</port>
			</input>
			<output>
				<port id="1" precision="FP32">
					<dim>1</dim>
					<dim>1</dim>
					<dim>64</dim>
				</port>
			</output>
		</layer>
		<layer id="59" name="__module.encoder.block1.0.attn.norm.ln_0/aten::layer_norm/Multiply_1" type="Multiply" version="opset1">
			<data auto_broadcast="numpy" />
			<input>
				<port id="0" precision="FP32">
					<dim>1</dim>
					<dim>266</dim>
					<dim>64</dim>
				</port>
				<port id="1" precision="FP32">
					<dim>1</dim>
					<dim>1</dim>
					<dim>64</dim>
				</port>
			</input>
			<output>
				<port id="2" precision="FP32">
					<dim>1</dim>
					<dim>266</dim>
					<dim>64</dim>
				</port>
			</output>
		</layer>
		<layer id="60" name="Constant_110381_compressed" type="Const" version="opset1">
			<data element_type="f16" shape="1, 1, 64" offset="552450" size="128" />
			<output>
				<port id="0" precision="FP16">
					<dim>1</dim>
					<dim>1</dim>
					<dim>64</dim>
				</port>
			</output>
		</layer>
		<layer id="61" name="Constant_110381" type="Convert" version="opset1">
			<data destination_type="f32" />
			<rt_info>
				<attribute name="decompression" version="0" />
			</rt_info>
			<input>
				<port id="0" precision="FP16">
					<dim>1</dim>
					<dim>1</dim>
					<dim>64</dim>
				</port>
			</input>
			<output>
				<port id="1" precision="FP32">
					<dim>1</dim>
					<dim>1</dim>
					<dim>64</dim>
				</port>
			</output>
		</layer>
		<layer id="62" name="__module.encoder.block1.0.attn.norm.ln_0/aten::layer_norm/Add" type="Add" version="opset1">
			<data auto_broadcast="numpy" />
			<input>
				<port id="0" precision="FP32">
					<dim>1</dim>
					<dim>266</dim>
					<dim>64</dim>
				</port>
				<port id="1" precision="FP32">
					<dim>1</dim>
					<dim>1</dim>
					<dim>64</dim>
				</port>
			</input>
			<output>
				<port id="2" precision="FP32" names="340,346,input.57">
					<dim>1</dim>
					<dim>266</dim>
					<dim>64</dim>
				</port>
			</output>
		</layer>
		<layer id="63" name="self.encoder.block1.0.attn.kv.module.weight_compressed" type="Const" version="opset1">
			<data element_type="f16" shape="128, 64" offset="552578" size="16384" />
			<output>
				<port id="0" precision="FP16" names="self.encoder.block1.0.attn.kv.module.weight">
					<dim>128</dim>
					<dim>64</dim>
				</port>
			</output>
		</layer>
		<layer id="64" name="self.encoder.block1.0.attn.kv.module.weight" type="Convert" version="opset1">
			<data destination_type="f32" />
			<rt_info>
				<attribute name="decompression" version="0" />
			</rt_info>
			<input>
				<port id="0" precision="FP16">
					<dim>128</dim>
					<dim>64</dim>
				</port>
			</input>
			<output>
				<port id="1" precision="FP32">
					<dim>128</dim>
					<dim>64</dim>
				</port>
			</output>
		</layer>
		<layer id="65" name="__module.encoder.block1.0.attn.kv.module/aten::linear/MatMul" type="MatMul" version="opset1">
			<data transpose_a="false" transpose_b="true" />
			<input>
				<port id="0" precision="FP32">
					<dim>1</dim>
					<dim>266</dim>
					<dim>64</dim>
				</port>
				<port id="1" precision="FP32">
					<dim>128</dim>
					<dim>64</dim>
				</port>
			</input>
			<output>
				<port id="2" precision="FP32">
					<dim>1</dim>
					<dim>266</dim>
					<dim>128</dim>
				</port>
			</output>
		</layer>
		<layer id="66" name="Constant_110382_compressed" type="Const" version="opset1">
			<data element_type="f16" shape="1, 1, 128" offset="568962" size="256" />
			<output>
				<port id="0" precision="FP16">
					<dim>1</dim>
					<dim>1</dim>
					<dim>128</dim>
				</port>
			</output>
		</layer>
		<layer id="67" name="Constant_110382" type="Convert" version="opset1">
			<data destination_type="f32" />
			<rt_info>
				<attribute name="decompression" version="0" />
			</rt_info>
			<input>
				<port id="0" precision="FP16">
					<dim>1</dim>
					<dim>1</dim>
					<dim>128</dim>
				</port>
			</input>
			<output>
				<port id="1" precision="FP32">
					<dim>1</dim>
					<dim>1</dim>
					<dim>128</dim>
				</port>
			</output>
		</layer>
		<layer id="68" name="__module.encoder.block1.0.attn.kv.module/aten::linear/Add" type="Add" version="opset1">
			<data auto_broadcast="numpy" />
			<input>
				<port id="0" precision="FP32">
					<dim>1</dim>
					<dim>266</dim>
					<dim>128</dim>
				</port>
				<port id="1" precision="FP32">
					<dim>1</dim>
					<dim>1</dim>
					<dim>128</dim>
				</port>
			</input>
			<output>
				<port id="2" precision="FP32" names="351,356,kv_.1">
					<dim>1</dim>
					<dim>266</dim>
					<dim>128</dim>
				</port>
			</output>
		</layer>
		<layer id="69" name="Constant_114088" type="Const" version="opset1">
			<data element_type="i64" shape="5" offset="569218" size="40" />
			<rt_info>
				<attribute name="precise" version="0" />
			</rt_info>
			<output>
				<port id="0" precision="I64">
					<dim>5</dim>
				</port>
			</output>
		</layer>
		<layer id="70" name="__module.encoder.block1.0.attn/aten::reshape/Reshape_3" type="Reshape" version="opset1">
			<data special_zero="true" />
			<input>
				<port id="0" precision="FP32">
					<dim>1</dim>
					<dim>266</dim>
					<dim>128</dim>
				</port>
				<port id="1" precision="I64">
					<dim>5</dim>
				</port>
			</input>
			<output>
				<port id="2" precision="FP32" names="361">
					<dim>1</dim>
					<dim>266</dim>
					<dim>2</dim>
					<dim>1</dim>
					<dim>64</dim>
				</port>
			</output>
		</layer>
		<layer id="71" name="__module.encoder.block1.0.attn/aten::permute/Mod_3" type="Const" version="opset1">
			<data element_type="i64" shape="5" offset="569258" size="40" />
			<output>
				<port id="0" precision="I64">
					<dim>5</dim>
				</port>
			</output>
		</layer>
		<layer id="72" name="__module.encoder.block1.0.attn/aten::permute/Transpose_3" type="Transpose" version="opset1">
			<input>
				<port id="0" precision="FP32">
					<dim>1</dim>
					<dim>266</dim>
					<dim>2</dim>
					<dim>1</dim>
					<dim>64</dim>
				</port>
				<port id="1" precision="I64">
					<dim>5</dim>
				</port>
			</input>
			<output>
				<port id="2" precision="FP32" names="363">
					<dim>2</dim>
					<dim>1</dim>
					<dim>1</dim>
					<dim>266</dim>
					<dim>64</dim>
				</port>
			</output>
		</layer>
		<layer id="73" name="64" type="Const" version="opset1">
			<data element_type="i64" shape="" offset="569298" size="8" />
			<output>
				<port id="0" precision="I64" names="64" />
			</output>
		</layer>
		<layer id="74" name="__module.encoder.block1.0.attn/aten::select/Gather" type="Gather" version="opset8">
			<data batch_dims="0" />
			<input>
				<port id="0" precision="FP32">
					<dim>2</dim>
					<dim>1</dim>
					<dim>1</dim>
					<dim>266</dim>
					<dim>64</dim>
				</port>
				<port id="1" precision="I64" />
				<port id="2" precision="I64" />
			</input>
			<output>
				<port id="3" precision="FP32" names="370,k_.1">
					<dim>1</dim>
					<dim>1</dim>
					<dim>266</dim>
					<dim>64</dim>
				</port>
			</output>
		</layer>
		<layer id="75" name="Constant_110383_compressed" type="Const" version="opset1">
			<data element_type="f16" shape="1, 1, 1, 1" offset="569306" size="2" />
			<output>
				<port id="0" precision="FP16">
					<dim>1</dim>
					<dim>1</dim>
					<dim>1</dim>
					<dim>1</dim>
				</port>
			</output>
		</layer>
		<layer id="76" name="Constant_110383" type="Convert" version="opset1">
			<data destination_type="f32" />
			<rt_info>
				<attribute name="decompression" version="0" />
			</rt_info>
			<input>
				<port id="0" precision="FP16">
					<dim>1</dim>
					<dim>1</dim>
					<dim>1</dim>
					<dim>1</dim>
				</port>
			</input>
			<output>
				<port id="1" precision="FP32">
					<dim>1</dim>
					<dim>1</dim>
					<dim>1</dim>
					<dim>1</dim>
				</port>
			</output>
		</layer>
		<layer id="77" name="Multiply_109353" type="Multiply" version="opset1">
			<data auto_broadcast="numpy" />
			<input>
				<port id="0" precision="FP32">
					<dim>1</dim>
					<dim>1</dim>
					<dim>266</dim>
					<dim>64</dim>
				</port>
				<port id="1" precision="FP32">
					<dim>1</dim>
					<dim>1</dim>
					<dim>1</dim>
					<dim>1</dim>
				</port>
			</input>
			<output>
				<port id="2" precision="FP32">
					<dim>1</dim>
					<dim>1</dim>
					<dim>266</dim>
					<dim>64</dim>
				</port>
			</output>
		</layer>
		<layer id="78" name="__module.encoder.block1.0.attn/aten::mul/Multiply" type="MatMul" version="opset1">
			<data transpose_a="false" transpose_b="true" />
			<input>
				<port id="0" precision="FP32">
					<dim>1</dim>
					<dim>1</dim>
					<dim>18369</dim>
					<dim>64</dim>
				</port>
				<port id="1" precision="FP32">
					<dim>1</dim>
					<dim>1</dim>
					<dim>266</dim>
					<dim>64</dim>
				</port>
			</input>
			<output>
				<port id="2" precision="FP32" names="376,attn_.1">
					<dim>1</dim>
					<dim>1</dim>
					<dim>18369</dim>
					<dim>266</dim>
				</port>
			</output>
		</layer>
		<layer id="79" name="__module.encoder.block1.0.attn/aten::softmax/Softmax" type="SoftMax" version="opset8">
			<data axis="-1" />
			<input>
				<port id="0" precision="FP32">
					<dim>1</dim>
					<dim>1</dim>
					<dim>18369</dim>
					<dim>266</dim>
				</port>
			</input>
			<output>
				<port id="1" precision="FP32" names="380,385,input.61">
					<dim>1</dim>
					<dim>1</dim>
					<dim>18369</dim>
					<dim>266</dim>
				</port>
			</output>
		</layer>
		<layer id="80" name="57" type="Const" version="opset1">
			<data element_type="i64" shape="" offset="569308" size="8" />
			<output>
				<port id="0" precision="I64" names="57" />
			</output>
		</layer>
		<layer id="81" name="__module.encoder.block1.0.attn/aten::select/Gather_1" type="Gather" version="opset8">
			<data batch_dims="0" />
			<input>
				<port id="0" precision="FP32">
					<dim>2</dim>
					<dim>1</dim>
					<dim>1</dim>
					<dim>266</dim>
					<dim>64</dim>
				</port>
				<port id="1" precision="I64" />
				<port id="2" precision="I64" />
			</input>
			<output>
				<port id="3" precision="FP32" names="372,v_.1">
					<dim>1</dim>
					<dim>1</dim>
					<dim>266</dim>
					<dim>64</dim>
				</port>
			</output>
		</layer>
		<layer id="82" name="__module.encoder.block1.0.attn/aten::matmul/MatMul_1" type="MatMul" version="opset1">
			<data transpose_a="false" transpose_b="false" />
			<input>
				<port id="0" precision="FP32">
					<dim>1</dim>
					<dim>1</dim>
					<dim>18369</dim>
					<dim>266</dim>
				</port>
				<port id="1" precision="FP32">
					<dim>1</dim>
					<dim>1</dim>
					<dim>266</dim>
					<dim>64</dim>
				</port>
			</input>
			<output>
				<port id="2" precision="FP32" names="387">
					<dim>1</dim>
					<dim>1</dim>
					<dim>18369</dim>
					<dim>64</dim>
				</port>
			</output>
		</layer>
		<layer id="83" name="Constant_107359" type="Const" version="opset1">
			<data element_type="i64" shape="4" offset="569316" size="32" />
			<rt_info>
				<attribute name="precise" version="0" />
			</rt_info>
			<output>
				<port id="0" precision="I64">
					<dim>4</dim>
				</port>
			</output>
		</layer>
		<layer id="84" name="__module.encoder.block1.0.attn/aten::transpose/Transpose_1" type="Reshape" version="opset1">
			<data special_zero="true" />
			<input>
				<port id="0" precision="FP32">
					<dim>1</dim>
					<dim>1</dim>
					<dim>18369</dim>
					<dim>64</dim>
				</port>
				<port id="1" precision="I64">
					<dim>4</dim>
				</port>
			</input>
			<output>
				<port id="2" precision="FP32" names="388">
					<dim>1</dim>
					<dim>18369</dim>
					<dim>1</dim>
					<dim>64</dim>
				</port>
			</output>
		</layer>
		<layer id="85" name="Constant_114089" type="Const" version="opset1">
			<data element_type="i64" shape="3" offset="569348" size="24" />
			<rt_info>
				<attribute name="precise" version="0" />
			</rt_info>
			<output>
				<port id="0" precision="I64">
					<dim>3</dim>
				</port>
			</output>
		</layer>
		<layer id="86" name="__module.encoder.block1.0.attn/aten::reshape/Reshape_4" type="Reshape" version="opset1">
			<data special_zero="true" />
			<input>
				<port id="0" precision="FP32">
					<dim>1</dim>
					<dim>18369</dim>
					<dim>1</dim>
					<dim>64</dim>
				</port>
				<port id="1" precision="I64">
					<dim>3</dim>
				</port>
			</input>
			<output>
				<port id="2" precision="FP32" names="390,input.65">
					<dim>1</dim>
					<dim>18369</dim>
					<dim>64</dim>
				</port>
			</output>
		</layer>
		<layer id="87" name="self.encoder.block1.0.attn.proj.module.weight_compressed" type="Const" version="opset1">
			<data element_type="f16" shape="64, 64" offset="569372" size="8192" />
			<output>
				<port id="0" precision="FP16" names="self.encoder.block1.0.attn.proj.module.weight">
					<dim>64</dim>
					<dim>64</dim>
				</port>
			</output>
		</layer>
		<layer id="88" name="self.encoder.block1.0.attn.proj.module.weight" type="Convert" version="opset1">
			<data destination_type="f32" />
			<rt_info>
				<attribute name="decompression" version="0" />
			</rt_info>
			<input>
				<port id="0" precision="FP16">
					<dim>64</dim>
					<dim>64</dim>
				</port>
			</input>
			<output>
				<port id="1" precision="FP32">
					<dim>64</dim>
					<dim>64</dim>
				</port>
			</output>
		</layer>
		<layer id="89" name="__module.encoder.block1.0.attn.proj.module/aten::linear/MatMul" type="MatMul" version="opset1">
			<data transpose_a="false" transpose_b="true" />
			<input>
				<port id="0" precision="FP32">
					<dim>1</dim>
					<dim>18369</dim>
					<dim>64</dim>
				</port>
				<port id="1" precision="FP32">
					<dim>64</dim>
					<dim>64</dim>
				</port>
			</input>
			<output>
				<port id="2" precision="FP32">
					<dim>1</dim>
					<dim>18369</dim>
					<dim>64</dim>
				</port>
			</output>
		</layer>
		<layer id="90" name="Constant_110384_compressed" type="Const" version="opset1">
			<data element_type="f16" shape="1, 1, 64" offset="577564" size="128" />
			<output>
				<port id="0" precision="FP16">
					<dim>1</dim>
					<dim>1</dim>
					<dim>64</dim>
				</port>
			</output>
		</layer>
		<layer id="91" name="Constant_110384" type="Convert" version="opset1">
			<data destination_type="f32" />
			<rt_info>
				<attribute name="decompression" version="0" />
			</rt_info>
			<input>
				<port id="0" precision="FP16">
					<dim>1</dim>
					<dim>1</dim>
					<dim>64</dim>
				</port>
			</input>
			<output>
				<port id="1" precision="FP32">
					<dim>1</dim>
					<dim>1</dim>
					<dim>64</dim>
				</port>
			</output>
		</layer>
		<layer id="92" name="__module.encoder.block1.0.attn.proj.module/aten::linear/Add" type="Add" version="opset1">
			<data auto_broadcast="numpy" />
			<input>
				<port id="0" precision="FP32">
					<dim>1</dim>
					<dim>18369</dim>
					<dim>64</dim>
				</port>
				<port id="1" precision="FP32">
					<dim>1</dim>
					<dim>1</dim>
					<dim>64</dim>
				</port>
			</input>
			<output>
				<port id="2" precision="FP32" names="398,403,408,input.69">
					<dim>1</dim>
					<dim>18369</dim>
					<dim>64</dim>
				</port>
			</output>
		</layer>
		<layer id="93" name="__module.encoder.score_predictor.0.score_nets.0.0/aten::layer_norm/Multiply" type="Const" version="opset1">
			<data element_type="i32" shape="1" offset="18982" size="4" />
			<output>
				<port id="0" precision="I32">
					<dim>1</dim>
				</port>
			</output>
		</layer>
		<layer id="94" name="__module.encoder.score_predictor.0.score_nets.0.0/aten::layer_norm/MVN" type="MVN" version="opset6">
			<data eps="9.9999997473787516e-06" normalize_variance="true" eps_mode="INSIDE_SQRT" />
			<input>
				<port id="0" precision="FP32">
					<dim>1</dim>
					<dim>18369</dim>
					<dim>64</dim>
				</port>
				<port id="1" precision="I32">
					<dim>1</dim>
				</port>
			</input>
			<output>
				<port id="2" precision="FP32">
					<dim>1</dim>
					<dim>18369</dim>
					<dim>64</dim>
				</port>
			</output>
		</layer>
		<layer id="95" name="Constant_110385_compressed" type="Const" version="opset1">
			<data element_type="f16" shape="1, 1, 64" offset="577692" size="128" />
			<output>
				<port id="0" precision="FP16">
					<dim>1</dim>
					<dim>1</dim>
					<dim>64</dim>
				</port>
			</output>
		</layer>
		<layer id="96" name="Constant_110385" type="Convert" version="opset1">
			<data destination_type="f32" />
			<rt_info>
				<attribute name="decompression" version="0" />
			</rt_info>
			<input>
				<port id="0" precision="FP16">
					<dim>1</dim>
					<dim>1</dim>
					<dim>64</dim>
				</port>
			</input>
			<output>
				<port id="1" precision="FP32">
					<dim>1</dim>
					<dim>1</dim>
					<dim>64</dim>
				</port>
			</output>
		</layer>
		<layer id="97" name="__module.encoder.score_predictor.0.score_nets.0.0/aten::layer_norm/Multiply_1" type="Multiply" version="opset1">
			<data auto_broadcast="numpy" />
			<input>
				<port id="0" precision="FP32">
					<dim>1</dim>
					<dim>18369</dim>
					<dim>64</dim>
				</port>
				<port id="1" precision="FP32">
					<dim>1</dim>
					<dim>1</dim>
					<dim>64</dim>
				</port>
			</input>
			<output>
				<port id="2" precision="FP32">
					<dim>1</dim>
					<dim>18369</dim>
					<dim>64</dim>
				</port>
			</output>
		</layer>
		<layer id="98" name="Constant_110386_compressed" type="Const" version="opset1">
			<data element_type="f16" shape="1, 1, 64" offset="577820" size="128" />
			<output>
				<port id="0" precision="FP16">
					<dim>1</dim>
					<dim>1</dim>
					<dim>64</dim>
				</port>
			</output>
		</layer>
		<layer id="99" name="Constant_110386" type="Convert" version="opset1">
			<data destination_type="f32" />
			<rt_info>
				<attribute name="decompression" version="0" />
			</rt_info>
			<input>
				<port id="0" precision="FP16">
					<dim>1</dim>
					<dim>1</dim>
					<dim>64</dim>
				</port>
			</input>
			<output>
				<port id="1" precision="FP32">
					<dim>1</dim>
					<dim>1</dim>
					<dim>64</dim>
				</port>
			</output>
		</layer>
		<layer id="100" name="__module.encoder.score_predictor.0.score_nets.0.0/aten::layer_norm/Add" type="Add" version="opset1">
			<data auto_broadcast="numpy" />
			<input>
				<port id="0" precision="FP32">
					<dim>1</dim>
					<dim>18369</dim>
					<dim>64</dim>
				</port>
				<port id="1" precision="FP32">
					<dim>1</dim>
					<dim>1</dim>
					<dim>64</dim>
				</port>
			</input>
			<output>
				<port id="2" precision="FP32" names="196,input.7">
					<dim>1</dim>
					<dim>18369</dim>
					<dim>64</dim>
				</port>
			</output>
		</layer>
		<layer id="101" name="self.encoder.score_predictor.0.score_nets.0.1.weight_compressed" type="Const" version="opset1">
			<data element_type="f16" shape="64, 64" offset="577948" size="8192" />
			<output>
				<port id="0" precision="FP16" names="self.encoder.score_predictor.0.score_nets.0.1.weight">
					<dim>64</dim>
					<dim>64</dim>
				</port>
			</output>
		</layer>
		<layer id="102" name="self.encoder.score_predictor.0.score_nets.0.1.weight" type="Convert" version="opset1">
			<data destination_type="f32" />
			<rt_info>
				<attribute name="decompression" version="0" />
			</rt_info>
			<input>
				<port id="0" precision="FP16">
					<dim>64</dim>
					<dim>64</dim>
				</port>
			</input>
			<output>
				<port id="1" precision="FP32">
					<dim>64</dim>
					<dim>64</dim>
				</port>
			</output>
		</layer>
		<layer id="103" name="__module.encoder.score_predictor.0.score_nets.0.1/aten::linear/MatMul" type="MatMul" version="opset1">
			<data transpose_a="false" transpose_b="true" />
			<input>
				<port id="0" precision="FP32">
					<dim>1</dim>
					<dim>18369</dim>
					<dim>64</dim>
				</port>
				<port id="1" precision="FP32">
					<dim>64</dim>
					<dim>64</dim>
				</port>
			</input>
			<output>
				<port id="2" precision="FP32">
					<dim>1</dim>
					<dim>18369</dim>
					<dim>64</dim>
				</port>
			</output>
		</layer>
		<layer id="104" name="Constant_110387_compressed" type="Const" version="opset1">
			<data element_type="f16" shape="1, 1, 64" offset="586140" size="128" />
			<output>
				<port id="0" precision="FP16">
					<dim>1</dim>
					<dim>1</dim>
					<dim>64</dim>
				</port>
			</output>
		</layer>
		<layer id="105" name="Constant_110387" type="Convert" version="opset1">
			<data destination_type="f32" />
			<rt_info>
				<attribute name="decompression" version="0" />
			</rt_info>
			<input>
				<port id="0" precision="FP16">
					<dim>1</dim>
					<dim>1</dim>
					<dim>64</dim>
				</port>
			</input>
			<output>
				<port id="1" precision="FP32">
					<dim>1</dim>
					<dim>1</dim>
					<dim>64</dim>
				</port>
			</output>
		</layer>
		<layer id="106" name="__module.encoder.score_predictor.0.score_nets.0.1/aten::linear/Add" type="Add" version="opset1">
			<data auto_broadcast="numpy" />
			<input>
				<port id="0" precision="FP32">
					<dim>1</dim>
					<dim>18369</dim>
					<dim>64</dim>
				</port>
				<port id="1" precision="FP32">
					<dim>1</dim>
					<dim>1</dim>
					<dim>64</dim>
				</port>
			</input>
			<output>
				<port id="2" precision="FP32" names="199,input.9">
					<dim>1</dim>
					<dim>18369</dim>
					<dim>64</dim>
				</port>
			</output>
		</layer>
		<layer id="107" name="__module.encoder.score_predictor.0.score_nets.0.2/aten::gelu/Gelu" type="Gelu" version="opset7">
			<data approximation_mode="ERF" />
			<input>
				<port id="0" precision="FP32">
					<dim>1</dim>
					<dim>18369</dim>
					<dim>64</dim>
				</port>
			</input>
			<output>
				<port id="1" precision="FP32" names="200,input.11">
					<dim>1</dim>
					<dim>18369</dim>
					<dim>64</dim>
				</port>
			</output>
		</layer>
		<layer id="108" name="self.encoder.score_predictor.0.score_nets.0.3.weight_compressed" type="Const" version="opset1">
			<data element_type="f16" shape="32, 64" offset="586268" size="4096" />
			<output>
				<port id="0" precision="FP16" names="self.encoder.score_predictor.0.score_nets.0.3.weight">
					<dim>32</dim>
					<dim>64</dim>
				</port>
			</output>
		</layer>
		<layer id="109" name="self.encoder.score_predictor.0.score_nets.0.3.weight" type="Convert" version="opset1">
			<data destination_type="f32" />
			<rt_info>
				<attribute name="decompression" version="0" />
			</rt_info>
			<input>
				<port id="0" precision="FP16">
					<dim>32</dim>
					<dim>64</dim>
				</port>
			</input>
			<output>
				<port id="1" precision="FP32">
					<dim>32</dim>
					<dim>64</dim>
				</port>
			</output>
		</layer>
		<layer id="110" name="__module.encoder.score_predictor.0.score_nets.0.3/aten::linear/MatMul" type="MatMul" version="opset1">
			<data transpose_a="false" transpose_b="true" />
			<input>
				<port id="0" precision="FP32">
					<dim>1</dim>
					<dim>18369</dim>
					<dim>64</dim>
				</port>
				<port id="1" precision="FP32">
					<dim>32</dim>
					<dim>64</dim>
				</port>
			</input>
			<output>
				<port id="2" precision="FP32">
					<dim>1</dim>
					<dim>18369</dim>
					<dim>32</dim>
				</port>
			</output>
		</layer>
		<layer id="111" name="Constant_110388_compressed" type="Const" version="opset1">
			<data element_type="f16" shape="1, 1, 32" offset="590364" size="64" />
			<output>
				<port id="0" precision="FP16">
					<dim>1</dim>
					<dim>1</dim>
					<dim>32</dim>
				</port>
			</output>
		</layer>
		<layer id="112" name="Constant_110388" type="Convert" version="opset1">
			<data destination_type="f32" />
			<rt_info>
				<attribute name="decompression" version="0" />
			</rt_info>
			<input>
				<port id="0" precision="FP16">
					<dim>1</dim>
					<dim>1</dim>
					<dim>32</dim>
				</port>
			</input>
			<output>
				<port id="1" precision="FP32">
					<dim>1</dim>
					<dim>1</dim>
					<dim>32</dim>
				</port>
			</output>
		</layer>
		<layer id="113" name="__module.encoder.score_predictor.0.score_nets.0.3/aten::linear/Add" type="Add" version="opset1">
			<data auto_broadcast="numpy" />
			<input>
				<port id="0" precision="FP32">
					<dim>1</dim>
					<dim>18369</dim>
					<dim>32</dim>
				</port>
				<port id="1" precision="FP32">
					<dim>1</dim>
					<dim>1</dim>
					<dim>32</dim>
				</port>
			</input>
			<output>
				<port id="2" precision="FP32" names="203,input.13">
					<dim>1</dim>
					<dim>18369</dim>
					<dim>32</dim>
				</port>
			</output>
		</layer>
		<layer id="114" name="__module.encoder.score_predictor.0.score_nets.0.4/aten::gelu/Gelu" type="Gelu" version="opset7">
			<data approximation_mode="ERF" />
			<input>
				<port id="0" precision="FP32">
					<dim>1</dim>
					<dim>18369</dim>
					<dim>32</dim>
				</port>
			</input>
			<output>
				<port id="1" precision="FP32" names="204,input.15">
					<dim>1</dim>
					<dim>18369</dim>
					<dim>32</dim>
				</port>
			</output>
		</layer>
		<layer id="115" name="self.encoder.score_predictor.0.score_nets.0.5.weight_compressed" type="Const" version="opset1">
			<data element_type="f16" shape="16, 32" offset="590428" size="1024" />
			<output>
				<port id="0" precision="FP16" names="self.encoder.score_predictor.0.score_nets.0.5.weight">
					<dim>16</dim>
					<dim>32</dim>
				</port>
			</output>
		</layer>
		<layer id="116" name="self.encoder.score_predictor.0.score_nets.0.5.weight" type="Convert" version="opset1">
			<data destination_type="f32" />
			<rt_info>
				<attribute name="decompression" version="0" />
			</rt_info>
			<input>
				<port id="0" precision="FP16">
					<dim>16</dim>
					<dim>32</dim>
				</port>
			</input>
			<output>
				<port id="1" precision="FP32">
					<dim>16</dim>
					<dim>32</dim>
				</port>
			</output>
		</layer>
		<layer id="117" name="__module.encoder.score_predictor.0.score_nets.0.5/aten::linear/MatMul" type="MatMul" version="opset1">
			<data transpose_a="false" transpose_b="true" />
			<input>
				<port id="0" precision="FP32">
					<dim>1</dim>
					<dim>18369</dim>
					<dim>32</dim>
				</port>
				<port id="1" precision="FP32">
					<dim>16</dim>
					<dim>32</dim>
				</port>
			</input>
			<output>
				<port id="2" precision="FP32">
					<dim>1</dim>
					<dim>18369</dim>
					<dim>16</dim>
				</port>
			</output>
		</layer>
		<layer id="118" name="Constant_110389_compressed" type="Const" version="opset1">
			<data element_type="f16" shape="1, 1, 16" offset="591452" size="32" />
			<output>
				<port id="0" precision="FP16">
					<dim>1</dim>
					<dim>1</dim>
					<dim>16</dim>
				</port>
			</output>
		</layer>
		<layer id="119" name="Constant_110389" type="Convert" version="opset1">
			<data destination_type="f32" />
			<rt_info>
				<attribute name="decompression" version="0" />
			</rt_info>
			<input>
				<port id="0" precision="FP16">
					<dim>1</dim>
					<dim>1</dim>
					<dim>16</dim>
				</port>
			</input>
			<output>
				<port id="1" precision="FP32">
					<dim>1</dim>
					<dim>1</dim>
					<dim>16</dim>
				</port>
			</output>
		</layer>
		<layer id="120" name="__module.encoder.score_predictor.0.score_nets.0.5/aten::linear/Add" type="Add" version="opset1">
			<data auto_broadcast="numpy" />
			<input>
				<port id="0" precision="FP32">
					<dim>1</dim>
					<dim>18369</dim>
					<dim>16</dim>
				</port>
				<port id="1" precision="FP32">
					<dim>1</dim>
					<dim>1</dim>
					<dim>16</dim>
				</port>
			</input>
			<output>
				<port id="2" precision="FP32" names="207,input.17">
					<dim>1</dim>
					<dim>18369</dim>
					<dim>16</dim>
				</port>
			</output>
		</layer>
		<layer id="121" name="__module.encoder.score_predictor.0.score_nets.0.6/aten::gelu/Gelu" type="Gelu" version="opset7">
			<data approximation_mode="ERF" />
			<input>
				<port id="0" precision="FP32">
					<dim>1</dim>
					<dim>18369</dim>
					<dim>16</dim>
				</port>
			</input>
			<output>
				<port id="1" precision="FP32" names="208,input.19">
					<dim>1</dim>
					<dim>18369</dim>
					<dim>16</dim>
				</port>
			</output>
		</layer>
		<layer id="122" name="self.encoder.score_predictor.0.score_nets.0.7.weight_compressed" type="Const" version="opset1">
			<data element_type="f16" shape="2, 16" offset="591484" size="64" />
			<output>
				<port id="0" precision="FP16" names="self.encoder.score_predictor.0.score_nets.0.7.weight">
					<dim>2</dim>
					<dim>16</dim>
				</port>
			</output>
		</layer>
		<layer id="123" name="self.encoder.score_predictor.0.score_nets.0.7.weight" type="Convert" version="opset1">
			<data destination_type="f32" />
			<rt_info>
				<attribute name="decompression" version="0" />
			</rt_info>
			<input>
				<port id="0" precision="FP16">
					<dim>2</dim>
					<dim>16</dim>
				</port>
			</input>
			<output>
				<port id="1" precision="FP32">
					<dim>2</dim>
					<dim>16</dim>
				</port>
			</output>
		</layer>
		<layer id="124" name="__module.encoder.score_predictor.0.score_nets.0.7/aten::linear/MatMul" type="MatMul" version="opset1">
			<data transpose_a="false" transpose_b="true" />
			<input>
				<port id="0" precision="FP32">
					<dim>1</dim>
					<dim>18369</dim>
					<dim>16</dim>
				</port>
				<port id="1" precision="FP32">
					<dim>2</dim>
					<dim>16</dim>
				</port>
			</input>
			<output>
				<port id="2" precision="FP32">
					<dim>1</dim>
					<dim>18369</dim>
					<dim>2</dim>
				</port>
			</output>
		</layer>
		<layer id="125" name="Constant_110390_compressed" type="Const" version="opset1">
			<data element_type="f16" shape="1, 1, 2" offset="591548" size="4" />
			<output>
				<port id="0" precision="FP16">
					<dim>1</dim>
					<dim>1</dim>
					<dim>2</dim>
				</port>
			</output>
		</layer>
		<layer id="126" name="Constant_110390" type="Convert" version="opset1">
			<data destination_type="f32" />
			<rt_info>
				<attribute name="decompression" version="0" />
			</rt_info>
			<input>
				<port id="0" precision="FP16">
					<dim>1</dim>
					<dim>1</dim>
					<dim>2</dim>
				</port>
			</input>
			<output>
				<port id="1" precision="FP32">
					<dim>1</dim>
					<dim>1</dim>
					<dim>2</dim>
				</port>
			</output>
		</layer>
		<layer id="127" name="__module.encoder.score_predictor.0.score_nets.0.7/aten::linear/Add" type="Add" version="opset1">
			<data auto_broadcast="numpy" />
			<input>
				<port id="0" precision="FP32">
					<dim>1</dim>
					<dim>18369</dim>
					<dim>2</dim>
				</port>
				<port id="1" precision="FP32">
					<dim>1</dim>
					<dim>1</dim>
					<dim>2</dim>
				</port>
			</input>
			<output>
				<port id="2" precision="FP32" names="211,input.21">
					<dim>1</dim>
					<dim>18369</dim>
					<dim>2</dim>
				</port>
			</output>
		</layer>
		<layer id="128" name="__module.encoder.score_predictor.0.score_nets.0.8/aten::log_softmax/LogSoftmax" type="LogSoftmax" version="opset5">
			<data axis="-1" />
			<input>
				<port id="0" precision="FP32">
					<dim>1</dim>
					<dim>18369</dim>
					<dim>2</dim>
				</port>
			</input>
			<output>
				<port id="1" precision="FP32" names="212,239,score_.1">
					<dim>1</dim>
					<dim>18369</dim>
					<dim>2</dim>
				</port>
			</output>
		</layer>
		<layer id="129" name="Constant_610" type="Const" version="opset1">
			<data element_type="i64" shape="3" offset="591552" size="24" />
			<rt_info>
				<attribute name="precise" version="0" />
			</rt_info>
			<output>
				<port id="0" precision="I64">
					<dim>3</dim>
				</port>
			</output>
		</layer>
		<layer id="130" name="__module.encoder/aten::reshape/Reshape" type="Reshape" version="opset1">
			<data special_zero="false" />
			<input>
				<port id="0" precision="FP32">
					<dim>1</dim>
					<dim>18369</dim>
					<dim>2</dim>
				</port>
				<port id="1" precision="I64">
					<dim>3</dim>
				</port>
			</input>
			<output>
				<port id="2" precision="FP32" names="242,input.41">
					<dim>1</dim>
					<dim>18369</dim>
					<dim>2</dim>
				</port>
			</output>
		</layer>
		<layer id="131" name="__module.encoder/aten::softmax/Softmax" type="SoftMax" version="opset8">
			<data axis="2" />
			<input>
				<port id="0" precision="FP32">
					<dim>1</dim>
					<dim>18369</dim>
					<dim>2</dim>
				</port>
			</input>
			<output>
				<port id="1" precision="FP32" names="243,244,245">
					<dim>1</dim>
					<dim>18369</dim>
					<dim>2</dim>
				</port>
			</output>
		</layer>
		<layer id="132" name="60" type="Const" version="opset1">
			<data element_type="i64" shape="" offset="591576" size="8" />
			<rt_info>
				<attribute name="precise" version="0" />
			</rt_info>
			<output>
				<port id="0" precision="I64" names="60" />
			</output>
		</layer>
		<layer id="133" name="__module.encoder/aten::select/Gather" type="Gather" version="opset8">
			<data batch_dims="0" />
			<input>
				<port id="0" precision="FP32">
					<dim>1</dim>
					<dim>18369</dim>
					<dim>2</dim>
				</port>
				<port id="1" precision="I64" />
				<port id="2" precision="I64" />
			</input>
			<output>
				<port id="3" precision="FP32" names="246,mask_.1">
					<dim>1</dim>
					<dim>18369</dim>
				</port>
			</output>
		</layer>
		<layer id="134" name="__module.encoder.block1.0.attn/aten::unsqueeze/Unsqueeze" type="Unsqueeze" version="opset1">
			<input>
				<port id="0" precision="FP32">
					<dim>1</dim>
					<dim>18369</dim>
				</port>
				<port id="1" precision="I64" />
			</input>
			<output>
				<port id="2" precision="FP32" names="410">
					<dim>1</dim>
					<dim>18369</dim>
					<dim>1</dim>
				</port>
			</output>
		</layer>
		<layer id="135" name="__module.encoder.block1.0.attn/aten::mul/Multiply_1" type="Multiply" version="opset1">
			<data auto_broadcast="numpy" />
			<input>
				<port id="0" precision="FP32">
					<dim>1</dim>
					<dim>18369</dim>
					<dim>64</dim>
				</port>
				<port id="1" precision="FP32">
					<dim>1</dim>
					<dim>18369</dim>
					<dim>1</dim>
				</port>
			</input>
			<output>
				<port id="2" precision="FP32" names="411,x0.1">
					<dim>1</dim>
					<dim>18369</dim>
					<dim>64</dim>
				</port>
			</output>
		</layer>
		<layer id="136" name="Constant_110391_compressed" type="Const" version="opset1">
			<data element_type="f16" shape="1, 1" offset="591584" size="2" />
			<output>
				<port id="0" precision="FP16">
					<dim>1</dim>
					<dim>1</dim>
				</port>
			</output>
		</layer>
		<layer id="137" name="Constant_110391" type="Convert" version="opset1">
			<data destination_type="f32" />
			<rt_info>
				<attribute name="decompression" version="0" />
			</rt_info>
			<input>
				<port id="0" precision="FP16">
					<dim>1</dim>
					<dim>1</dim>
				</port>
			</input>
			<output>
				<port id="1" precision="FP32">
					<dim>1</dim>
					<dim>1</dim>
				</port>
			</output>
		</layer>
		<layer id="138" name="__module.encoder.block1.0.attn.exchange/aten::ge/GreaterEqual" type="GreaterEqual" version="opset1">
			<data auto_broadcast="numpy" />
			<input>
				<port id="0" precision="FP32">
					<dim>1</dim>
					<dim>18369</dim>
				</port>
				<port id="1" precision="FP32">
					<dim>1</dim>
					<dim>1</dim>
				</port>
			</input>
			<output>
				<port id="2" precision="BOOL" names="414">
					<dim>1</dim>
					<dim>18369</dim>
				</port>
			</output>
		</layer>
		<layer id="139" name="61" type="Const" version="opset1">
			<data element_type="i64" shape="" offset="591586" size="8" />
			<output>
				<port id="0" precision="I64" names="61" />
			</output>
		</layer>
		<layer id="140" name="__module.encoder.block1.0.attn.exchange/aten::unsqueeze/Unsqueeze" type="Unsqueeze" version="opset1">
			<input>
				<port id="0" precision="BOOL">
					<dim>1</dim>
					<dim>18369</dim>
				</port>
				<port id="1" precision="I64" />
			</input>
			<output>
				<port id="2" precision="BOOL" names="415">
					<dim>1</dim>
					<dim>18369</dim>
					<dim>1</dim>
				</port>
			</output>
		</layer>
		<layer id="141" name="Constant_102417" type="Const" version="opset1">
			<data element_type="i64" shape="1" offset="569308" size="8" />
			<rt_info>
				<attribute name="precise" version="0" />
			</rt_info>
			<output>
				<port id="0" precision="I64">
					<dim>1</dim>
				</port>
			</output>
		</layer>
		<layer id="142" name="Constant_102419" type="Const" version="opset1">
			<data element_type="i64" shape="1" offset="569308" size="8" />
			<rt_info>
				<attribute name="precise" version="0" />
			</rt_info>
			<output>
				<port id="0" precision="I64">
					<dim>1</dim>
				</port>
			</output>
		</layer>
		<layer id="143" name="__module.encoder.block1.0.attn.exchange/aten::size/ShapeOf" type="ShapeOf" version="opset3">
			<data output_type="i64" />
			<input>
				<port id="0" precision="FP32">
					<dim>1</dim>
					<dim>18369</dim>
					<dim>64</dim>
				</port>
			</input>
			<output>
				<port id="1" precision="I64">
					<dim>3</dim>
				</port>
			</output>
		</layer>
		<layer id="144" name="Constant_104202" type="Const" version="opset1">
			<data element_type="i64" shape="1" offset="591576" size="8" />
			<rt_info>
				<attribute name="precise" version="0" />
			</rt_info>
			<output>
				<port id="0" precision="I64">
					<dim>1</dim>
				</port>
			</output>
		</layer>
		<layer id="145" name="__module.encoder.block1.0.attn.exchange/aten::size/Constant" type="Const" version="opset1">
			<data element_type="i32" shape="" offset="591594" size="4" />
			<rt_info>
				<attribute name="precise" version="0" />
			</rt_info>
			<output>
				<port id="0" precision="I32" />
			</output>
		</layer>
		<layer id="146" name="__module.encoder.block1.0.attn.exchange/aten::size/Gather" type="Gather" version="opset8">
			<data batch_dims="0" />
			<input>
				<port id="0" precision="I64">
					<dim>3</dim>
				</port>
				<port id="1" precision="I64">
					<dim>1</dim>
				</port>
				<port id="2" precision="I32" />
			</input>
			<output>
				<port id="3" precision="I64" names="416">
					<dim>1</dim>
				</port>
			</output>
		</layer>
		<layer id="147" name="__module.encoder.block1.0.attn.exchange/prim::ListConstruct" type="Concat" version="opset1">
			<data axis="0" />
			<input>
				<port id="0" precision="I64">
					<dim>1</dim>
				</port>
				<port id="1" precision="I64">
					<dim>1</dim>
				</port>
				<port id="2" precision="I64">
					<dim>1</dim>
				</port>
			</input>
			<output>
				<port id="3" precision="I64">
					<dim>3</dim>
				</port>
			</output>
		</layer>
		<layer id="148" name="__module.encoder.block1.0.attn.exchange/aten::expand/Broadcast" type="Broadcast" version="opset3">
			<data mode="bidirectional" />
			<input>
				<port id="0" precision="BOOL">
					<dim>1</dim>
					<dim>18369</dim>
					<dim>1</dim>
				</port>
				<port id="1" precision="I64">
					<dim>3</dim>
				</port>
			</input>
			<output>
				<port id="2" precision="BOOL" names="418,mask0.1">
					<dim>1</dim>
					<dim>18369</dim>
					<dim>64</dim>
				</port>
			</output>
		</layer>
		<layer id="149" name="__module.encoder.block1.0.attn.exchange/aten::to/Convert" type="Convert" version="opset1">
			<data destination_type="f32" />
			<input>
				<port id="0" precision="BOOL">
					<dim>1</dim>
					<dim>18369</dim>
					<dim>64</dim>
				</port>
			</input>
			<output>
				<port id="1" precision="FP32" names="424,mask0.3">
					<dim>1</dim>
					<dim>18369</dim>
					<dim>64</dim>
				</port>
			</output>
		</layer>
		<layer id="150" name="__module.encoder.block1.0.attn.exchange/aten::mul/Multiply" type="Multiply" version="opset1">
			<data auto_broadcast="numpy" />
			<input>
				<port id="0" precision="FP32">
					<dim>1</dim>
					<dim>18369</dim>
					<dim>64</dim>
				</port>
				<port id="1" precision="FP32">
					<dim>1</dim>
					<dim>18369</dim>
					<dim>64</dim>
				</port>
			</input>
			<output>
				<port id="2" precision="FP32" names="426">
					<dim>1</dim>
					<dim>18369</dim>
					<dim>64</dim>
				</port>
			</output>
		</layer>
		<layer id="151" name="__module.encoder.patch_embed1.proj.module/aten::_convolution/Convolution_1" type="Convolution" version="opset1">
			<data strides="4, 4" dilations="1, 1" pads_begin="3, 3" pads_end="3, 3" auto_pad="explicit" />
			<input>
				<port id="0" precision="FP32">
					<dim>1</dim>
					<dim>3</dim>
					<dim>468</dim>
					<dim>625</dim>
				</port>
				<port id="1" precision="FP32">
					<dim>64</dim>
					<dim>3</dim>
					<dim>7</dim>
					<dim>7</dim>
				</port>
			</input>
			<output>
				<port id="2" precision="FP32">
					<dim>1</dim>
					<dim>64</dim>
					<dim>117</dim>
					<dim>157</dim>
				</port>
			</output>
		</layer>
		<layer id="152" name="__module.encoder.patch_embed1.proj.module/aten::_convolution/Reshape_1_compressed" type="Const" version="opset1">
			<data element_type="f16" shape="1, 64, 1, 1" offset="18818" size="128" />
			<output>
				<port id="0" precision="FP16">
					<dim>1</dim>
					<dim>64</dim>
					<dim>1</dim>
					<dim>1</dim>
				</port>
			</output>
		</layer>
		<layer id="153" name="__module.encoder.patch_embed1.proj.module/aten::_convolution/Reshape_1" type="Convert" version="opset1">
			<data destination_type="f32" />
			<rt_info>
				<attribute name="decompression" version="0" />
			</rt_info>
			<input>
				<port id="0" precision="FP16">
					<dim>1</dim>
					<dim>64</dim>
					<dim>1</dim>
					<dim>1</dim>
				</port>
			</input>
			<output>
				<port id="1" precision="FP32">
					<dim>1</dim>
					<dim>64</dim>
					<dim>1</dim>
					<dim>1</dim>
				</port>
			</output>
		</layer>
		<layer id="154" name="__module.encoder.patch_embed1.proj.module/aten::_convolution/Add_1" type="Add" version="opset1">
			<data auto_broadcast="numpy" />
			<input>
				<port id="0" precision="FP32">
					<dim>1</dim>
					<dim>64</dim>
					<dim>117</dim>
					<dim>157</dim>
				</port>
				<port id="1" precision="FP32">
					<dim>1</dim>
					<dim>64</dim>
					<dim>1</dim>
					<dim>1</dim>
				</port>
			</input>
			<output>
				<port id="2" precision="FP32" names="130,133,x_.3">
					<dim>1</dim>
					<dim>64</dim>
					<dim>117</dim>
					<dim>157</dim>
				</port>
			</output>
		</layer>
		<layer id="155" name="Constant_114090" type="Const" version="opset1">
			<data element_type="i64" shape="3" offset="18946" size="24" />
			<rt_info>
				<attribute name="precise" version="0" />
			</rt_info>
			<output>
				<port id="0" precision="I64">
					<dim>3</dim>
				</port>
			</output>
		</layer>
		<layer id="156" name="__module.encoder.patch_embed1/aten::flatten/Reshape_1" type="Reshape" version="opset1">
			<data special_zero="true" />
			<input>
				<port id="0" precision="FP32">
					<dim>1</dim>
					<dim>64</dim>
					<dim>117</dim>
					<dim>157</dim>
				</port>
				<port id="1" precision="I64">
					<dim>3</dim>
				</port>
			</input>
			<output>
				<port id="2" precision="FP32" names="138">
					<dim>1</dim>
					<dim>64</dim>
					<dim>18369</dim>
				</port>
			</output>
		</layer>
		<layer id="157" name="__module.encoder.patch_embed1/aten::transpose/Constant_1" type="Const" version="opset1">
			<data element_type="i32" shape="3" offset="18970" size="12" />
			<output>
				<port id="0" precision="I32">
					<dim>3</dim>
				</port>
			</output>
		</layer>
		<layer id="158" name="__module.encoder.patch_embed1/aten::transpose/Transpose_1" type="Transpose" version="opset1">
			<input>
				<port id="0" precision="FP32">
					<dim>1</dim>
					<dim>64</dim>
					<dim>18369</dim>
				</port>
				<port id="1" precision="I32">
					<dim>3</dim>
				</port>
			</input>
			<output>
				<port id="2" precision="FP32" names="139,input.3">
					<dim>1</dim>
					<dim>18369</dim>
					<dim>64</dim>
				</port>
			</output>
		</layer>
		<layer id="159" name="__module.encoder.patch_embed1.norm.ln_1/aten::layer_norm/Multiply" type="Const" version="opset1">
			<data element_type="i32" shape="1" offset="18982" size="4" />
			<output>
				<port id="0" precision="I32">
					<dim>1</dim>
				</port>
			</output>
		</layer>
		<layer id="160" name="__module.encoder.patch_embed1.norm.ln_1/aten::layer_norm/MVN" type="MVN" version="opset6">
			<data eps="9.9999999747524271e-07" normalize_variance="true" eps_mode="INSIDE_SQRT" />
			<input>
				<port id="0" precision="FP32">
					<dim>1</dim>
					<dim>18369</dim>
					<dim>64</dim>
				</port>
				<port id="1" precision="I32">
					<dim>1</dim>
				</port>
			</input>
			<output>
				<port id="2" precision="FP32">
					<dim>1</dim>
					<dim>18369</dim>
					<dim>64</dim>
				</port>
			</output>
		</layer>
		<layer id="161" name="Constant_110392_compressed" type="Const" version="opset1">
			<data element_type="f16" shape="1, 1, 64" offset="591598" size="128" />
			<output>
				<port id="0" precision="FP16">
					<dim>1</dim>
					<dim>1</dim>
					<dim>64</dim>
				</port>
			</output>
		</layer>
		<layer id="162" name="Constant_110392" type="Convert" version="opset1">
			<data destination_type="f32" />
			<rt_info>
				<attribute name="decompression" version="0" />
			</rt_info>
			<input>
				<port id="0" precision="FP16">
					<dim>1</dim>
					<dim>1</dim>
					<dim>64</dim>
				</port>
			</input>
			<output>
				<port id="1" precision="FP32">
					<dim>1</dim>
					<dim>1</dim>
					<dim>64</dim>
				</port>
			</output>
		</layer>
		<layer id="163" name="__module.encoder.patch_embed1.norm.ln_1/aten::layer_norm/Multiply_1" type="Multiply" version="opset1">
			<data auto_broadcast="numpy" />
			<input>
				<port id="0" precision="FP32">
					<dim>1</dim>
					<dim>18369</dim>
					<dim>64</dim>
				</port>
				<port id="1" precision="FP32">
					<dim>1</dim>
					<dim>1</dim>
					<dim>64</dim>
				</port>
			</input>
			<output>
				<port id="2" precision="FP32">
					<dim>1</dim>
					<dim>18369</dim>
					<dim>64</dim>
				</port>
			</output>
		</layer>
		<layer id="164" name="Constant_110393_compressed" type="Const" version="opset1">
			<data element_type="f16" shape="1, 1, 64" offset="591726" size="128" />
			<output>
				<port id="0" precision="FP16">
					<dim>1</dim>
					<dim>1</dim>
					<dim>64</dim>
				</port>
			</output>
		</layer>
		<layer id="165" name="Constant_110393" type="Convert" version="opset1">
			<data destination_type="f32" />
			<rt_info>
				<attribute name="decompression" version="0" />
			</rt_info>
			<input>
				<port id="0" precision="FP16">
					<dim>1</dim>
					<dim>1</dim>
					<dim>64</dim>
				</port>
			</input>
			<output>
				<port id="1" precision="FP32">
					<dim>1</dim>
					<dim>1</dim>
					<dim>64</dim>
				</port>
			</output>
		</layer>
		<layer id="166" name="__module.encoder.patch_embed1.norm.ln_1/aten::layer_norm/Add" type="Add" version="opset1">
			<data auto_broadcast="numpy" />
			<input>
				<port id="0" precision="FP32">
					<dim>1</dim>
					<dim>18369</dim>
					<dim>64</dim>
				</port>
				<port id="1" precision="FP32">
					<dim>1</dim>
					<dim>1</dim>
					<dim>64</dim>
				</port>
			</input>
			<output>
				<port id="2" precision="FP32" names="149,152,155,input.23">
					<dim>1</dim>
					<dim>18369</dim>
					<dim>64</dim>
				</port>
			</output>
		</layer>
		<layer id="167" name="__module.encoder.block1.0.norm1.ln_1/aten::layer_norm/Multiply" type="Const" version="opset1">
			<data element_type="i32" shape="1" offset="18982" size="4" />
			<output>
				<port id="0" precision="I32">
					<dim>1</dim>
				</port>
			</output>
		</layer>
		<layer id="168" name="__module.encoder.block1.0.norm1.ln_1/aten::layer_norm/MVN" type="MVN" version="opset6">
			<data eps="9.9999999747524271e-07" normalize_variance="true" eps_mode="INSIDE_SQRT" />
			<input>
				<port id="0" precision="FP32">
					<dim>1</dim>
					<dim>18369</dim>
					<dim>64</dim>
				</port>
				<port id="1" precision="I32">
					<dim>1</dim>
				</port>
			</input>
			<output>
				<port id="2" precision="FP32">
					<dim>1</dim>
					<dim>18369</dim>
					<dim>64</dim>
				</port>
			</output>
		</layer>
		<layer id="169" name="Constant_110394_compressed" type="Const" version="opset1">
			<data element_type="f16" shape="1, 1, 64" offset="591854" size="128" />
			<output>
				<port id="0" precision="FP16">
					<dim>1</dim>
					<dim>1</dim>
					<dim>64</dim>
				</port>
			</output>
		</layer>
		<layer id="170" name="Constant_110394" type="Convert" version="opset1">
			<data destination_type="f32" />
			<rt_info>
				<attribute name="decompression" version="0" />
			</rt_info>
			<input>
				<port id="0" precision="FP16">
					<dim>1</dim>
					<dim>1</dim>
					<dim>64</dim>
				</port>
			</input>
			<output>
				<port id="1" precision="FP32">
					<dim>1</dim>
					<dim>1</dim>
					<dim>64</dim>
				</port>
			</output>
		</layer>
		<layer id="171" name="__module.encoder.block1.0.norm1.ln_1/aten::layer_norm/Multiply_1" type="Multiply" version="opset1">
			<data auto_broadcast="numpy" />
			<input>
				<port id="0" precision="FP32">
					<dim>1</dim>
					<dim>18369</dim>
					<dim>64</dim>
				</port>
				<port id="1" precision="FP32">
					<dim>1</dim>
					<dim>1</dim>
					<dim>64</dim>
				</port>
			</input>
			<output>
				<port id="2" precision="FP32">
					<dim>1</dim>
					<dim>18369</dim>
					<dim>64</dim>
				</port>
			</output>
		</layer>
		<layer id="172" name="Constant_110395_compressed" type="Const" version="opset1">
			<data element_type="f16" shape="1, 1, 64" offset="591982" size="128" />
			<output>
				<port id="0" precision="FP16">
					<dim>1</dim>
					<dim>1</dim>
					<dim>64</dim>
				</port>
			</output>
		</layer>
		<layer id="173" name="Constant_110395" type="Convert" version="opset1">
			<data destination_type="f32" />
			<rt_info>
				<attribute name="decompression" version="0" />
			</rt_info>
			<input>
				<port id="0" precision="FP16">
					<dim>1</dim>
					<dim>1</dim>
					<dim>64</dim>
				</port>
			</input>
			<output>
				<port id="1" precision="FP32">
					<dim>1</dim>
					<dim>1</dim>
					<dim>64</dim>
				</port>
			</output>
		</layer>
		<layer id="174" name="__module.encoder.block1.0.norm1.ln_1/aten::layer_norm/Add" type="Add" version="opset1">
			<data auto_broadcast="numpy" />
			<input>
				<port id="0" precision="FP32">
					<dim>1</dim>
					<dim>18369</dim>
					<dim>64</dim>
				</port>
				<port id="1" precision="FP32">
					<dim>1</dim>
					<dim>1</dim>
					<dim>64</dim>
				</port>
			</input>
			<output>
				<port id="2" precision="FP32" names="266,269,input.47">
					<dim>1</dim>
					<dim>18369</dim>
					<dim>64</dim>
				</port>
			</output>
		</layer>
		<layer id="175" name="__module.encoder.block1.0.attn.q.module/aten::linear/MatMul_1" type="MatMul" version="opset1">
			<data transpose_a="false" transpose_b="true" />
			<input>
				<port id="0" precision="FP32">
					<dim>1</dim>
					<dim>18369</dim>
					<dim>64</dim>
				</port>
				<port id="1" precision="FP32">
					<dim>64</dim>
					<dim>64</dim>
				</port>
			</input>
			<output>
				<port id="2" precision="FP32">
					<dim>1</dim>
					<dim>18369</dim>
					<dim>64</dim>
				</port>
			</output>
		</layer>
		<layer id="176" name="Constant_110396_compressed" type="Const" version="opset1">
			<data element_type="f16" shape="1, 1, 64" offset="27690" size="128" />
			<output>
				<port id="0" precision="FP16">
					<dim>1</dim>
					<dim>1</dim>
					<dim>64</dim>
				</port>
			</output>
		</layer>
		<layer id="177" name="Constant_110396" type="Convert" version="opset1">
			<data destination_type="f32" />
			<rt_info>
				<attribute name="decompression" version="0" />
			</rt_info>
			<input>
				<port id="0" precision="FP16">
					<dim>1</dim>
					<dim>1</dim>
					<dim>64</dim>
				</port>
			</input>
			<output>
				<port id="1" precision="FP32">
					<dim>1</dim>
					<dim>1</dim>
					<dim>64</dim>
				</port>
			</output>
		</layer>
		<layer id="178" name="__module.encoder.block1.0.attn.q.module/aten::linear/Add_1" type="Add" version="opset1">
			<data auto_broadcast="numpy" />
			<input>
				<port id="0" precision="FP32">
					<dim>1</dim>
					<dim>18369</dim>
					<dim>64</dim>
				</port>
				<port id="1" precision="FP32">
					<dim>1</dim>
					<dim>1</dim>
					<dim>64</dim>
				</port>
			</input>
			<output>
				<port id="2" precision="FP32" names="285,288,q_.3">
					<dim>1</dim>
					<dim>18369</dim>
					<dim>64</dim>
				</port>
			</output>
		</layer>
		<layer id="179" name="__module.encoder.block1.0.attn/aten::size/ShapeOf" type="ShapeOf" version="opset3">
			<data output_type="i64" />
			<input>
				<port id="0" precision="FP32">
					<dim>1</dim>
					<dim>18369</dim>
					<dim>64</dim>
				</port>
			</input>
			<output>
				<port id="1" precision="I64">
					<dim>3</dim>
				</port>
			</output>
		</layer>
		<layer id="180" name="Constant_104651" type="Const" version="opset1">
			<data element_type="i64" shape="2" offset="592110" size="16" />
			<rt_info>
				<attribute name="precise" version="0" />
			</rt_info>
			<output>
				<port id="0" precision="I64">
					<dim>2</dim>
				</port>
			</output>
		</layer>
		<layer id="181" name="Constant_104652" type="Const" version="opset1">
			<data element_type="i64" shape="" offset="569298" size="8" />
			<rt_info>
				<attribute name="precise" version="0" />
			</rt_info>
			<output>
				<port id="0" precision="I64" />
			</output>
		</layer>
		<layer id="182" name="Gather_104653" type="Gather" version="opset8">
			<data batch_dims="0" />
			<input>
				<port id="0" precision="I64">
					<dim>3</dim>
				</port>
				<port id="1" precision="I64">
					<dim>2</dim>
				</port>
				<port id="2" precision="I64" />
			</input>
			<output>
				<port id="3" precision="I64">
					<dim>2</dim>
				</port>
			</output>
		</layer>
		<layer id="183" name="Constant_754" type="Const" version="opset1">
			<data element_type="i64" shape="1" offset="569308" size="8" />
			<rt_info>
				<attribute name="precise" version="0" />
			</rt_info>
			<output>
				<port id="0" precision="I64">
					<dim>1</dim>
				</port>
			</output>
		</layer>
		<layer id="184" name="__module.encoder.block1.0.attn/aten::size/Constant_2" type="Const" version="opset1">
			<data element_type="i32" shape="" offset="591594" size="4" />
			<rt_info>
				<attribute name="precise" version="0" />
			</rt_info>
			<output>
				<port id="0" precision="I32" />
			</output>
		</layer>
		<layer id="185" name="__module.encoder.block1.0.attn/aten::size/Gather_2" type="Gather" version="opset8">
			<data batch_dims="0" />
			<input>
				<port id="0" precision="I64">
					<dim>3</dim>
				</port>
				<port id="1" precision="I64" />
				<port id="2" precision="I32" />
			</input>
			<output>
				<port id="3" precision="I64" names="277" />
			</output>
		</layer>
		<layer id="186" name="__module.encoder.block1.0.attn/aten::floor_divide/Floor" type="Floor" version="opset1">
			<input>
				<port id="0" precision="I64" />
			</input>
			<output>
				<port id="1" precision="I64" names="289,290,295,296,358,359,364,365" />
			</output>
		</layer>
		<layer id="187" name="Constant_749" type="Const" version="opset1">
			<data element_type="i32" shape="" offset="591594" size="4" />
			<rt_info>
				<attribute name="precise" version="0" />
			</rt_info>
			<output>
				<port id="0" precision="I32" />
			</output>
		</layer>
		<layer id="188" name="Unsqueeze_750" type="Unsqueeze" version="opset1">
			<input>
				<port id="0" precision="I64" />
				<port id="1" precision="I32" />
			</input>
			<output>
				<port id="2" precision="I64">
					<dim>1</dim>
				</port>
			</output>
		</layer>
		<layer id="189" name="__module.encoder.block1.0.attn/prim::ListConstruct" type="Concat" version="opset1">
			<data axis="0" />
			<input>
				<port id="0" precision="I64">
					<dim>2</dim>
				</port>
				<port id="1" precision="I64">
					<dim>1</dim>
				</port>
				<port id="2" precision="I64">
					<dim>1</dim>
				</port>
			</input>
			<output>
				<port id="3" precision="I64">
					<dim>4</dim>
				</port>
			</output>
		</layer>
		<layer id="190" name="__module.encoder.block1.0.attn/aten::reshape/Reshape_5" type="Reshape" version="opset1">
			<data special_zero="false" />
			<input>
				<port id="0" precision="FP32">
					<dim>1</dim>
					<dim>18369</dim>
					<dim>64</dim>
				</port>
				<port id="1" precision="I64">
					<dim>4</dim>
				</port>
			</input>
			<output>
				<port id="2" precision="FP32" names="298">
					<dim>1</dim>
					<dim>18369</dim>
					<dim>1</dim>
					<dim>64</dim>
				</port>
			</output>
		</layer>
		<layer id="191" name="Constant_107391" type="Const" version="opset1">
			<data element_type="i64" shape="4" offset="27850" size="32" />
			<rt_info>
				<attribute name="precise" version="0" />
			</rt_info>
			<output>
				<port id="0" precision="I64">
					<dim>4</dim>
				</port>
			</output>
		</layer>
		<layer id="192" name="__module.encoder.block1.0.attn/aten::permute/Transpose_4" type="Reshape" version="opset1">
			<data special_zero="true" />
			<input>
				<port id="0" precision="FP32">
					<dim>1</dim>
					<dim>18369</dim>
					<dim>1</dim>
					<dim>64</dim>
				</port>
				<port id="1" precision="I64">
					<dim>4</dim>
				</port>
			</input>
			<output>
				<port id="2" precision="FP32" names="300,q_.7">
					<dim>1</dim>
					<dim>1</dim>
					<dim>18369</dim>
					<dim>64</dim>
				</port>
			</output>
		</layer>
		<layer id="193" name="__module.encoder.block1.0.attn/aten::permute/Mod_5" type="Const" version="opset1">
			<data element_type="i64" shape="3" offset="27882" size="24" />
			<output>
				<port id="0" precision="I64">
					<dim>3</dim>
				</port>
			</output>
		</layer>
		<layer id="194" name="__module.encoder.block1.0.attn/aten::permute/Transpose_5" type="Transpose" version="opset1">
			<input>
				<port id="0" precision="FP32">
					<dim>1</dim>
					<dim>18369</dim>
					<dim>64</dim>
				</port>
				<port id="1" precision="I64">
					<dim>3</dim>
				</port>
			</input>
			<output>
				<port id="2" precision="FP32" names="306">
					<dim>1</dim>
					<dim>64</dim>
					<dim>18369</dim>
				</port>
			</output>
		</layer>
		<layer id="195" name="__module.encoder.block1.0.attn/aten::reshape/Reshape_6" type="Reshape" version="opset1">
			<data special_zero="false" />
			<input>
				<port id="0" precision="FP32">
					<dim>1</dim>
					<dim>64</dim>
					<dim>18369</dim>
				</port>
				<port id="1" precision="I64">
					<dim>4</dim>
				</port>
			</input>
			<output>
				<port id="2" precision="FP32" names="308,input.51">
					<dim>1</dim>
					<dim>64</dim>
					<dim>117</dim>
					<dim>157</dim>
				</port>
			</output>
		</layer>
		<layer id="196" name="__module.encoder.block1.0.attn.sr.module/aten::_convolution/Convolution_1" type="Convolution" version="opset1">
			<data strides="8, 8" dilations="1, 1" pads_begin="0, 0" pads_end="0, 0" auto_pad="explicit" />
			<input>
				<port id="0" precision="FP32">
					<dim>1</dim>
					<dim>64</dim>
					<dim>117</dim>
					<dim>157</dim>
				</port>
				<port id="1" precision="FP32">
					<dim>64</dim>
					<dim>64</dim>
					<dim>8</dim>
					<dim>8</dim>
				</port>
			</input>
			<output>
				<port id="2" precision="FP32">
					<dim>1</dim>
					<dim>64</dim>
					<dim>14</dim>
					<dim>19</dim>
				</port>
			</output>
		</layer>
		<layer id="197" name="__module.encoder.block1.0.attn.sr.module/aten::_convolution/Reshape_1_compressed" type="Const" version="opset1">
			<data element_type="f16" shape="1, 64, 1, 1" offset="552194" size="128" />
			<output>
				<port id="0" precision="FP16">
					<dim>1</dim>
					<dim>64</dim>
					<dim>1</dim>
					<dim>1</dim>
				</port>
			</output>
		</layer>
		<layer id="198" name="__module.encoder.block1.0.attn.sr.module/aten::_convolution/Reshape_1" type="Convert" version="opset1">
			<data destination_type="f32" />
			<rt_info>
				<attribute name="decompression" version="0" />
			</rt_info>
			<input>
				<port id="0" precision="FP16">
					<dim>1</dim>
					<dim>64</dim>
					<dim>1</dim>
					<dim>1</dim>
				</port>
			</input>
			<output>
				<port id="1" precision="FP32">
					<dim>1</dim>
					<dim>64</dim>
					<dim>1</dim>
					<dim>1</dim>
				</port>
			</output>
		</layer>
		<layer id="199" name="__module.encoder.block1.0.attn.sr.module/aten::_convolution/Add_1" type="Add" version="opset1">
			<data auto_broadcast="numpy" />
			<input>
				<port id="0" precision="FP32">
					<dim>1</dim>
					<dim>64</dim>
					<dim>14</dim>
					<dim>19</dim>
				</port>
				<port id="1" precision="FP32">
					<dim>1</dim>
					<dim>64</dim>
					<dim>1</dim>
					<dim>1</dim>
				</port>
			</input>
			<output>
				<port id="2" precision="FP32" names="323,326,x_.7">
					<dim>1</dim>
					<dim>64</dim>
					<dim>14</dim>
					<dim>19</dim>
				</port>
			</output>
		</layer>
		<layer id="200" name="Constant_114091" type="Const" version="opset1">
			<data element_type="i64" shape="3" offset="18946" size="24" />
			<rt_info>
				<attribute name="precise" version="0" />
			</rt_info>
			<output>
				<port id="0" precision="I64">
					<dim>3</dim>
				</port>
			</output>
		</layer>
		<layer id="201" name="__module.encoder.block1.0.attn/aten::reshape/Reshape_7" type="Reshape" version="opset1">
			<data special_zero="true" />
			<input>
				<port id="0" precision="FP32">
					<dim>1</dim>
					<dim>64</dim>
					<dim>14</dim>
					<dim>19</dim>
				</port>
				<port id="1" precision="I64">
					<dim>3</dim>
				</port>
			</input>
			<output>
				<port id="2" precision="FP32" names="332">
					<dim>1</dim>
					<dim>64</dim>
					<dim>266</dim>
				</port>
			</output>
		</layer>
		<layer id="202" name="__module.encoder.block1.0.attn/aten::permute/Mod_6" type="Const" version="opset1">
			<data element_type="i64" shape="3" offset="27882" size="24" />
			<output>
				<port id="0" precision="I64">
					<dim>3</dim>
				</port>
			</output>
		</layer>
		<layer id="203" name="__module.encoder.block1.0.attn/aten::permute/Transpose_6" type="Transpose" version="opset1">
			<input>
				<port id="0" precision="FP32">
					<dim>1</dim>
					<dim>64</dim>
					<dim>266</dim>
				</port>
				<port id="1" precision="I64">
					<dim>3</dim>
				</port>
			</input>
			<output>
				<port id="2" precision="FP32" names="334,input.55">
					<dim>1</dim>
					<dim>266</dim>
					<dim>64</dim>
				</port>
			</output>
		</layer>
		<layer id="204" name="__module.encoder.block1.0.attn.norm.ln_1/aten::layer_norm/Multiply" type="Const" version="opset1">
			<data element_type="i32" shape="1" offset="18982" size="4" />
			<output>
				<port id="0" precision="I32">
					<dim>1</dim>
				</port>
			</output>
		</layer>
		<layer id="205" name="__module.encoder.block1.0.attn.norm.ln_1/aten::layer_norm/MVN" type="MVN" version="opset6">
			<data eps="9.9999999747524271e-07" normalize_variance="true" eps_mode="INSIDE_SQRT" />
			<input>
				<port id="0" precision="FP32">
					<dim>1</dim>
					<dim>266</dim>
					<dim>64</dim>
				</port>
				<port id="1" precision="I32">
					<dim>1</dim>
				</port>
			</input>
			<output>
				<port id="2" precision="FP32">
					<dim>1</dim>
					<dim>266</dim>
					<dim>64</dim>
				</port>
			</output>
		</layer>
		<layer id="206" name="Constant_110397_compressed" type="Const" version="opset1">
			<data element_type="f16" shape="1, 1, 64" offset="592126" size="128" />
			<output>
				<port id="0" precision="FP16">
					<dim>1</dim>
					<dim>1</dim>
					<dim>64</dim>
				</port>
			</output>
		</layer>
		<layer id="207" name="Constant_110397" type="Convert" version="opset1">
			<data destination_type="f32" />
			<rt_info>
				<attribute name="decompression" version="0" />
			</rt_info>
			<input>
				<port id="0" precision="FP16">
					<dim>1</dim>
					<dim>1</dim>
					<dim>64</dim>
				</port>
			</input>
			<output>
				<port id="1" precision="FP32">
					<dim>1</dim>
					<dim>1</dim>
					<dim>64</dim>
				</port>
			</output>
		</layer>
		<layer id="208" name="__module.encoder.block1.0.attn.norm.ln_1/aten::layer_norm/Multiply_1" type="Multiply" version="opset1">
			<data auto_broadcast="numpy" />
			<input>
				<port id="0" precision="FP32">
					<dim>1</dim>
					<dim>266</dim>
					<dim>64</dim>
				</port>
				<port id="1" precision="FP32">
					<dim>1</dim>
					<dim>1</dim>
					<dim>64</dim>
				</port>
			</input>
			<output>
				<port id="2" precision="FP32">
					<dim>1</dim>
					<dim>266</dim>
					<dim>64</dim>
				</port>
			</output>
		</layer>
		<layer id="209" name="Constant_110398_compressed" type="Const" version="opset1">
			<data element_type="f16" shape="1, 1, 64" offset="592254" size="128" />
			<output>
				<port id="0" precision="FP16">
					<dim>1</dim>
					<dim>1</dim>
					<dim>64</dim>
				</port>
			</output>
		</layer>
		<layer id="210" name="Constant_110398" type="Convert" version="opset1">
			<data destination_type="f32" />
			<rt_info>
				<attribute name="decompression" version="0" />
			</rt_info>
			<input>
				<port id="0" precision="FP16">
					<dim>1</dim>
					<dim>1</dim>
					<dim>64</dim>
				</port>
			</input>
			<output>
				<port id="1" precision="FP32">
					<dim>1</dim>
					<dim>1</dim>
					<dim>64</dim>
				</port>
			</output>
		</layer>
		<layer id="211" name="__module.encoder.block1.0.attn.norm.ln_1/aten::layer_norm/Add" type="Add" version="opset1">
			<data auto_broadcast="numpy" />
			<input>
				<port id="0" precision="FP32">
					<dim>1</dim>
					<dim>266</dim>
					<dim>64</dim>
				</port>
				<port id="1" precision="FP32">
					<dim>1</dim>
					<dim>1</dim>
					<dim>64</dim>
				</port>
			</input>
			<output>
				<port id="2" precision="FP32" names="344,347,input.59">
					<dim>1</dim>
					<dim>266</dim>
					<dim>64</dim>
				</port>
			</output>
		</layer>
		<layer id="212" name="__module.encoder.block1.0.attn.kv.module/aten::linear/MatMul_1" type="MatMul" version="opset1">
			<data transpose_a="false" transpose_b="true" />
			<input>
				<port id="0" precision="FP32">
					<dim>1</dim>
					<dim>266</dim>
					<dim>64</dim>
				</port>
				<port id="1" precision="FP32">
					<dim>128</dim>
					<dim>64</dim>
				</port>
			</input>
			<output>
				<port id="2" precision="FP32">
					<dim>1</dim>
					<dim>266</dim>
					<dim>128</dim>
				</port>
			</output>
		</layer>
		<layer id="213" name="Constant_110399_compressed" type="Const" version="opset1">
			<data element_type="f16" shape="1, 1, 128" offset="568962" size="256" />
			<output>
				<port id="0" precision="FP16">
					<dim>1</dim>
					<dim>1</dim>
					<dim>128</dim>
				</port>
			</output>
		</layer>
		<layer id="214" name="Constant_110399" type="Convert" version="opset1">
			<data destination_type="f32" />
			<rt_info>
				<attribute name="decompression" version="0" />
			</rt_info>
			<input>
				<port id="0" precision="FP16">
					<dim>1</dim>
					<dim>1</dim>
					<dim>128</dim>
				</port>
			</input>
			<output>
				<port id="1" precision="FP32">
					<dim>1</dim>
					<dim>1</dim>
					<dim>128</dim>
				</port>
			</output>
		</layer>
		<layer id="215" name="__module.encoder.block1.0.attn.kv.module/aten::linear/Add_1" type="Add" version="opset1">
			<data auto_broadcast="numpy" />
			<input>
				<port id="0" precision="FP32">
					<dim>1</dim>
					<dim>266</dim>
					<dim>128</dim>
				</port>
				<port id="1" precision="FP32">
					<dim>1</dim>
					<dim>1</dim>
					<dim>128</dim>
				</port>
			</input>
			<output>
				<port id="2" precision="FP32" names="354,357,kv_.3">
					<dim>1</dim>
					<dim>266</dim>
					<dim>128</dim>
				</port>
			</output>
		</layer>
		<layer id="216" name="Constant_114092" type="Const" version="opset1">
			<data element_type="i64" shape="5" offset="569218" size="40" />
			<rt_info>
				<attribute name="precise" version="0" />
			</rt_info>
			<output>
				<port id="0" precision="I64">
					<dim>5</dim>
				</port>
			</output>
		</layer>
		<layer id="217" name="__module.encoder.block1.0.attn/aten::reshape/Reshape_8" type="Reshape" version="opset1">
			<data special_zero="true" />
			<input>
				<port id="0" precision="FP32">
					<dim>1</dim>
					<dim>266</dim>
					<dim>128</dim>
				</port>
				<port id="1" precision="I64">
					<dim>5</dim>
				</port>
			</input>
			<output>
				<port id="2" precision="FP32" names="367">
					<dim>1</dim>
					<dim>266</dim>
					<dim>2</dim>
					<dim>1</dim>
					<dim>64</dim>
				</port>
			</output>
		</layer>
		<layer id="218" name="__module.encoder.block1.0.attn/aten::permute/Mod_7" type="Const" version="opset1">
			<data element_type="i64" shape="5" offset="569258" size="40" />
			<output>
				<port id="0" precision="I64">
					<dim>5</dim>
				</port>
			</output>
		</layer>
		<layer id="219" name="__module.encoder.block1.0.attn/aten::permute/Transpose_7" type="Transpose" version="opset1">
			<input>
				<port id="0" precision="FP32">
					<dim>1</dim>
					<dim>266</dim>
					<dim>2</dim>
					<dim>1</dim>
					<dim>64</dim>
				</port>
				<port id="1" precision="I64">
					<dim>5</dim>
				</port>
			</input>
			<output>
				<port id="2" precision="FP32" names="369">
					<dim>2</dim>
					<dim>1</dim>
					<dim>1</dim>
					<dim>266</dim>
					<dim>64</dim>
				</port>
			</output>
		</layer>
		<layer id="220" name="__module.encoder.block1.0.attn/aten::select/Gather_2" type="Gather" version="opset8">
			<data batch_dims="0" />
			<input>
				<port id="0" precision="FP32">
					<dim>2</dim>
					<dim>1</dim>
					<dim>1</dim>
					<dim>266</dim>
					<dim>64</dim>
				</port>
				<port id="1" precision="I64" />
				<port id="2" precision="I64" />
			</input>
			<output>
				<port id="3" precision="FP32" names="371,k_.3">
					<dim>1</dim>
					<dim>1</dim>
					<dim>266</dim>
					<dim>64</dim>
				</port>
			</output>
		</layer>
		<layer id="221" name="Constant_110400_compressed" type="Const" version="opset1">
			<data element_type="f16" shape="1, 1, 1, 1" offset="569306" size="2" />
			<output>
				<port id="0" precision="FP16">
					<dim>1</dim>
					<dim>1</dim>
					<dim>1</dim>
					<dim>1</dim>
				</port>
			</output>
		</layer>
		<layer id="222" name="Constant_110400" type="Convert" version="opset1">
			<data destination_type="f32" />
			<rt_info>
				<attribute name="decompression" version="0" />
			</rt_info>
			<input>
				<port id="0" precision="FP16">
					<dim>1</dim>
					<dim>1</dim>
					<dim>1</dim>
					<dim>1</dim>
				</port>
			</input>
			<output>
				<port id="1" precision="FP32">
					<dim>1</dim>
					<dim>1</dim>
					<dim>1</dim>
					<dim>1</dim>
				</port>
			</output>
		</layer>
		<layer id="223" name="Multiply_109355" type="Multiply" version="opset1">
			<data auto_broadcast="numpy" />
			<input>
				<port id="0" precision="FP32">
					<dim>1</dim>
					<dim>1</dim>
					<dim>266</dim>
					<dim>64</dim>
				</port>
				<port id="1" precision="FP32">
					<dim>1</dim>
					<dim>1</dim>
					<dim>1</dim>
					<dim>1</dim>
				</port>
			</input>
			<output>
				<port id="2" precision="FP32">
					<dim>1</dim>
					<dim>1</dim>
					<dim>266</dim>
					<dim>64</dim>
				</port>
			</output>
		</layer>
		<layer id="224" name="__module.encoder.block1.0.attn/aten::mul/Multiply_2" type="MatMul" version="opset1">
			<data transpose_a="false" transpose_b="true" />
			<input>
				<port id="0" precision="FP32">
					<dim>1</dim>
					<dim>1</dim>
					<dim>18369</dim>
					<dim>64</dim>
				</port>
				<port id="1" precision="FP32">
					<dim>1</dim>
					<dim>1</dim>
					<dim>266</dim>
					<dim>64</dim>
				</port>
			</input>
			<output>
				<port id="2" precision="FP32" names="379,attn_.3">
					<dim>1</dim>
					<dim>1</dim>
					<dim>18369</dim>
					<dim>266</dim>
				</port>
			</output>
		</layer>
		<layer id="225" name="__module.encoder.block1.0.attn/aten::softmax/Softmax_1" type="SoftMax" version="opset8">
			<data axis="-1" />
			<input>
				<port id="0" precision="FP32">
					<dim>1</dim>
					<dim>1</dim>
					<dim>18369</dim>
					<dim>266</dim>
				</port>
			</input>
			<output>
				<port id="1" precision="FP32" names="381,386,input.63">
					<dim>1</dim>
					<dim>1</dim>
					<dim>18369</dim>
					<dim>266</dim>
				</port>
			</output>
		</layer>
		<layer id="226" name="__module.encoder.block1.0.attn/aten::select/Gather_3" type="Gather" version="opset8">
			<data batch_dims="0" />
			<input>
				<port id="0" precision="FP32">
					<dim>2</dim>
					<dim>1</dim>
					<dim>1</dim>
					<dim>266</dim>
					<dim>64</dim>
				</port>
				<port id="1" precision="I64" />
				<port id="2" precision="I64" />
			</input>
			<output>
				<port id="3" precision="FP32" names="373,v_.3">
					<dim>1</dim>
					<dim>1</dim>
					<dim>266</dim>
					<dim>64</dim>
				</port>
			</output>
		</layer>
		<layer id="227" name="__module.encoder.block1.0.attn/aten::matmul/MatMul_3" type="MatMul" version="opset1">
			<data transpose_a="false" transpose_b="false" />
			<input>
				<port id="0" precision="FP32">
					<dim>1</dim>
					<dim>1</dim>
					<dim>18369</dim>
					<dim>266</dim>
				</port>
				<port id="1" precision="FP32">
					<dim>1</dim>
					<dim>1</dim>
					<dim>266</dim>
					<dim>64</dim>
				</port>
			</input>
			<output>
				<port id="2" precision="FP32" names="391">
					<dim>1</dim>
					<dim>1</dim>
					<dim>18369</dim>
					<dim>64</dim>
				</port>
			</output>
		</layer>
		<layer id="228" name="Constant_107405" type="Const" version="opset1">
			<data element_type="i64" shape="4" offset="569316" size="32" />
			<rt_info>
				<attribute name="precise" version="0" />
			</rt_info>
			<output>
				<port id="0" precision="I64">
					<dim>4</dim>
				</port>
			</output>
		</layer>
		<layer id="229" name="__module.encoder.block1.0.attn/aten::transpose/Transpose_3" type="Reshape" version="opset1">
			<data special_zero="true" />
			<input>
				<port id="0" precision="FP32">
					<dim>1</dim>
					<dim>1</dim>
					<dim>18369</dim>
					<dim>64</dim>
				</port>
				<port id="1" precision="I64">
					<dim>4</dim>
				</port>
			</input>
			<output>
				<port id="2" precision="FP32" names="392">
					<dim>1</dim>
					<dim>18369</dim>
					<dim>1</dim>
					<dim>64</dim>
				</port>
			</output>
		</layer>
		<layer id="230" name="Constant_114093" type="Const" version="opset1">
			<data element_type="i64" shape="3" offset="569348" size="24" />
			<rt_info>
				<attribute name="precise" version="0" />
			</rt_info>
			<output>
				<port id="0" precision="I64">
					<dim>3</dim>
				</port>
			</output>
		</layer>
		<layer id="231" name="__module.encoder.block1.0.attn/aten::reshape/Reshape_9" type="Reshape" version="opset1">
			<data special_zero="true" />
			<input>
				<port id="0" precision="FP32">
					<dim>1</dim>
					<dim>18369</dim>
					<dim>1</dim>
					<dim>64</dim>
				</port>
				<port id="1" precision="I64">
					<dim>3</dim>
				</port>
			</input>
			<output>
				<port id="2" precision="FP32" names="394,input.67">
					<dim>1</dim>
					<dim>18369</dim>
					<dim>64</dim>
				</port>
			</output>
		</layer>
		<layer id="232" name="__module.encoder.block1.0.attn.proj.module/aten::linear/MatMul_1" type="MatMul" version="opset1">
			<data transpose_a="false" transpose_b="true" />
			<input>
				<port id="0" precision="FP32">
					<dim>1</dim>
					<dim>18369</dim>
					<dim>64</dim>
				</port>
				<port id="1" precision="FP32">
					<dim>64</dim>
					<dim>64</dim>
				</port>
			</input>
			<output>
				<port id="2" precision="FP32">
					<dim>1</dim>
					<dim>18369</dim>
					<dim>64</dim>
				</port>
			</output>
		</layer>
		<layer id="233" name="Constant_110401_compressed" type="Const" version="opset1">
			<data element_type="f16" shape="1, 1, 64" offset="577564" size="128" />
			<output>
				<port id="0" precision="FP16">
					<dim>1</dim>
					<dim>1</dim>
					<dim>64</dim>
				</port>
			</output>
		</layer>
		<layer id="234" name="Constant_110401" type="Convert" version="opset1">
			<data destination_type="f32" />
			<rt_info>
				<attribute name="decompression" version="0" />
			</rt_info>
			<input>
				<port id="0" precision="FP16">
					<dim>1</dim>
					<dim>1</dim>
					<dim>64</dim>
				</port>
			</input>
			<output>
				<port id="1" precision="FP32">
					<dim>1</dim>
					<dim>1</dim>
					<dim>64</dim>
				</port>
			</output>
		</layer>
		<layer id="235" name="__module.encoder.block1.0.attn.proj.module/aten::linear/Add_1" type="Add" version="opset1">
			<data auto_broadcast="numpy" />
			<input>
				<port id="0" precision="FP32">
					<dim>1</dim>
					<dim>18369</dim>
					<dim>64</dim>
				</port>
				<port id="1" precision="FP32">
					<dim>1</dim>
					<dim>1</dim>
					<dim>64</dim>
				</port>
			</input>
			<output>
				<port id="2" precision="FP32" names="401,404,409,input.71">
					<dim>1</dim>
					<dim>18369</dim>
					<dim>64</dim>
				</port>
			</output>
		</layer>
		<layer id="236" name="__module.encoder.score_predictor.0.score_nets.1.0/aten::layer_norm/Multiply" type="Const" version="opset1">
			<data element_type="i32" shape="1" offset="18982" size="4" />
			<output>
				<port id="0" precision="I32">
					<dim>1</dim>
				</port>
			</output>
		</layer>
		<layer id="237" name="__module.encoder.score_predictor.0.score_nets.1.0/aten::layer_norm/MVN" type="MVN" version="opset6">
			<data eps="9.9999997473787516e-06" normalize_variance="true" eps_mode="INSIDE_SQRT" />
			<input>
				<port id="0" precision="FP32">
					<dim>1</dim>
					<dim>18369</dim>
					<dim>64</dim>
				</port>
				<port id="1" precision="I32">
					<dim>1</dim>
				</port>
			</input>
			<output>
				<port id="2" precision="FP32">
					<dim>1</dim>
					<dim>18369</dim>
					<dim>64</dim>
				</port>
			</output>
		</layer>
		<layer id="238" name="Constant_110402_compressed" type="Const" version="opset1">
			<data element_type="f16" shape="1, 1, 64" offset="592382" size="128" />
			<output>
				<port id="0" precision="FP16">
					<dim>1</dim>
					<dim>1</dim>
					<dim>64</dim>
				</port>
			</output>
		</layer>
		<layer id="239" name="Constant_110402" type="Convert" version="opset1">
			<data destination_type="f32" />
			<rt_info>
				<attribute name="decompression" version="0" />
			</rt_info>
			<input>
				<port id="0" precision="FP16">
					<dim>1</dim>
					<dim>1</dim>
					<dim>64</dim>
				</port>
			</input>
			<output>
				<port id="1" precision="FP32">
					<dim>1</dim>
					<dim>1</dim>
					<dim>64</dim>
				</port>
			</output>
		</layer>
		<layer id="240" name="__module.encoder.score_predictor.0.score_nets.1.0/aten::layer_norm/Multiply_1" type="Multiply" version="opset1">
			<data auto_broadcast="numpy" />
			<input>
				<port id="0" precision="FP32">
					<dim>1</dim>
					<dim>18369</dim>
					<dim>64</dim>
				</port>
				<port id="1" precision="FP32">
					<dim>1</dim>
					<dim>1</dim>
					<dim>64</dim>
				</port>
			</input>
			<output>
				<port id="2" precision="FP32">
					<dim>1</dim>
					<dim>18369</dim>
					<dim>64</dim>
				</port>
			</output>
		</layer>
		<layer id="241" name="Constant_110403_compressed" type="Const" version="opset1">
			<data element_type="f16" shape="1, 1, 64" offset="592510" size="128" />
			<output>
				<port id="0" precision="FP16">
					<dim>1</dim>
					<dim>1</dim>
					<dim>64</dim>
				</port>
			</output>
		</layer>
		<layer id="242" name="Constant_110403" type="Convert" version="opset1">
			<data destination_type="f32" />
			<rt_info>
				<attribute name="decompression" version="0" />
			</rt_info>
			<input>
				<port id="0" precision="FP16">
					<dim>1</dim>
					<dim>1</dim>
					<dim>64</dim>
				</port>
			</input>
			<output>
				<port id="1" precision="FP32">
					<dim>1</dim>
					<dim>1</dim>
					<dim>64</dim>
				</port>
			</output>
		</layer>
		<layer id="243" name="__module.encoder.score_predictor.0.score_nets.1.0/aten::layer_norm/Add" type="Add" version="opset1">
			<data auto_broadcast="numpy" />
			<input>
				<port id="0" precision="FP32">
					<dim>1</dim>
					<dim>18369</dim>
					<dim>64</dim>
				</port>
				<port id="1" precision="FP32">
					<dim>1</dim>
					<dim>1</dim>
					<dim>64</dim>
				</port>
			</input>
			<output>
				<port id="2" precision="FP32" names="221,input.25">
					<dim>1</dim>
					<dim>18369</dim>
					<dim>64</dim>
				</port>
			</output>
		</layer>
		<layer id="244" name="self.encoder.score_predictor.0.score_nets.1.1.weight_compressed" type="Const" version="opset1">
			<data element_type="f16" shape="64, 64" offset="592638" size="8192" />
			<output>
				<port id="0" precision="FP16" names="self.encoder.score_predictor.0.score_nets.1.1.weight">
					<dim>64</dim>
					<dim>64</dim>
				</port>
			</output>
		</layer>
		<layer id="245" name="self.encoder.score_predictor.0.score_nets.1.1.weight" type="Convert" version="opset1">
			<data destination_type="f32" />
			<rt_info>
				<attribute name="decompression" version="0" />
			</rt_info>
			<input>
				<port id="0" precision="FP16">
					<dim>64</dim>
					<dim>64</dim>
				</port>
			</input>
			<output>
				<port id="1" precision="FP32">
					<dim>64</dim>
					<dim>64</dim>
				</port>
			</output>
		</layer>
		<layer id="246" name="__module.encoder.score_predictor.0.score_nets.1.1/aten::linear/MatMul" type="MatMul" version="opset1">
			<data transpose_a="false" transpose_b="true" />
			<input>
				<port id="0" precision="FP32">
					<dim>1</dim>
					<dim>18369</dim>
					<dim>64</dim>
				</port>
				<port id="1" precision="FP32">
					<dim>64</dim>
					<dim>64</dim>
				</port>
			</input>
			<output>
				<port id="2" precision="FP32">
					<dim>1</dim>
					<dim>18369</dim>
					<dim>64</dim>
				</port>
			</output>
		</layer>
		<layer id="247" name="Constant_110404_compressed" type="Const" version="opset1">
			<data element_type="f16" shape="1, 1, 64" offset="600830" size="128" />
			<output>
				<port id="0" precision="FP16">
					<dim>1</dim>
					<dim>1</dim>
					<dim>64</dim>
				</port>
			</output>
		</layer>
		<layer id="248" name="Constant_110404" type="Convert" version="opset1">
			<data destination_type="f32" />
			<rt_info>
				<attribute name="decompression" version="0" />
			</rt_info>
			<input>
				<port id="0" precision="FP16">
					<dim>1</dim>
					<dim>1</dim>
					<dim>64</dim>
				</port>
			</input>
			<output>
				<port id="1" precision="FP32">
					<dim>1</dim>
					<dim>1</dim>
					<dim>64</dim>
				</port>
			</output>
		</layer>
		<layer id="249" name="__module.encoder.score_predictor.0.score_nets.1.1/aten::linear/Add" type="Add" version="opset1">
			<data auto_broadcast="numpy" />
			<input>
				<port id="0" precision="FP32">
					<dim>1</dim>
					<dim>18369</dim>
					<dim>64</dim>
				</port>
				<port id="1" precision="FP32">
					<dim>1</dim>
					<dim>1</dim>
					<dim>64</dim>
				</port>
			</input>
			<output>
				<port id="2" precision="FP32" names="224,input.27">
					<dim>1</dim>
					<dim>18369</dim>
					<dim>64</dim>
				</port>
			</output>
		</layer>
		<layer id="250" name="__module.encoder.score_predictor.0.score_nets.1.2/aten::gelu/Gelu" type="Gelu" version="opset7">
			<data approximation_mode="ERF" />
			<input>
				<port id="0" precision="FP32">
					<dim>1</dim>
					<dim>18369</dim>
					<dim>64</dim>
				</port>
			</input>
			<output>
				<port id="1" precision="FP32" names="225,input.29">
					<dim>1</dim>
					<dim>18369</dim>
					<dim>64</dim>
				</port>
			</output>
		</layer>
		<layer id="251" name="self.encoder.score_predictor.0.score_nets.1.3.weight_compressed" type="Const" version="opset1">
			<data element_type="f16" shape="32, 64" offset="600958" size="4096" />
			<output>
				<port id="0" precision="FP16" names="self.encoder.score_predictor.0.score_nets.1.3.weight">
					<dim>32</dim>
					<dim>64</dim>
				</port>
			</output>
		</layer>
		<layer id="252" name="self.encoder.score_predictor.0.score_nets.1.3.weight" type="Convert" version="opset1">
			<data destination_type="f32" />
			<rt_info>
				<attribute name="decompression" version="0" />
			</rt_info>
			<input>
				<port id="0" precision="FP16">
					<dim>32</dim>
					<dim>64</dim>
				</port>
			</input>
			<output>
				<port id="1" precision="FP32">
					<dim>32</dim>
					<dim>64</dim>
				</port>
			</output>
		</layer>
		<layer id="253" name="__module.encoder.score_predictor.0.score_nets.1.3/aten::linear/MatMul" type="MatMul" version="opset1">
			<data transpose_a="false" transpose_b="true" />
			<input>
				<port id="0" precision="FP32">
					<dim>1</dim>
					<dim>18369</dim>
					<dim>64</dim>
				</port>
				<port id="1" precision="FP32">
					<dim>32</dim>
					<dim>64</dim>
				</port>
			</input>
			<output>
				<port id="2" precision="FP32">
					<dim>1</dim>
					<dim>18369</dim>
					<dim>32</dim>
				</port>
			</output>
		</layer>
		<layer id="254" name="Constant_110405_compressed" type="Const" version="opset1">
			<data element_type="f16" shape="1, 1, 32" offset="605054" size="64" />
			<output>
				<port id="0" precision="FP16">
					<dim>1</dim>
					<dim>1</dim>
					<dim>32</dim>
				</port>
			</output>
		</layer>
		<layer id="255" name="Constant_110405" type="Convert" version="opset1">
			<data destination_type="f32" />
			<rt_info>
				<attribute name="decompression" version="0" />
			</rt_info>
			<input>
				<port id="0" precision="FP16">
					<dim>1</dim>
					<dim>1</dim>
					<dim>32</dim>
				</port>
			</input>
			<output>
				<port id="1" precision="FP32">
					<dim>1</dim>
					<dim>1</dim>
					<dim>32</dim>
				</port>
			</output>
		</layer>
		<layer id="256" name="__module.encoder.score_predictor.0.score_nets.1.3/aten::linear/Add" type="Add" version="opset1">
			<data auto_broadcast="numpy" />
			<input>
				<port id="0" precision="FP32">
					<dim>1</dim>
					<dim>18369</dim>
					<dim>32</dim>
				</port>
				<port id="1" precision="FP32">
					<dim>1</dim>
					<dim>1</dim>
					<dim>32</dim>
				</port>
			</input>
			<output>
				<port id="2" precision="FP32" names="228,input.31">
					<dim>1</dim>
					<dim>18369</dim>
					<dim>32</dim>
				</port>
			</output>
		</layer>
		<layer id="257" name="__module.encoder.score_predictor.0.score_nets.1.4/aten::gelu/Gelu" type="Gelu" version="opset7">
			<data approximation_mode="ERF" />
			<input>
				<port id="0" precision="FP32">
					<dim>1</dim>
					<dim>18369</dim>
					<dim>32</dim>
				</port>
			</input>
			<output>
				<port id="1" precision="FP32" names="229,input.33">
					<dim>1</dim>
					<dim>18369</dim>
					<dim>32</dim>
				</port>
			</output>
		</layer>
		<layer id="258" name="self.encoder.score_predictor.0.score_nets.1.5.weight_compressed" type="Const" version="opset1">
			<data element_type="f16" shape="16, 32" offset="605118" size="1024" />
			<output>
				<port id="0" precision="FP16" names="self.encoder.score_predictor.0.score_nets.1.5.weight">
					<dim>16</dim>
					<dim>32</dim>
				</port>
			</output>
		</layer>
		<layer id="259" name="self.encoder.score_predictor.0.score_nets.1.5.weight" type="Convert" version="opset1">
			<data destination_type="f32" />
			<rt_info>
				<attribute name="decompression" version="0" />
			</rt_info>
			<input>
				<port id="0" precision="FP16">
					<dim>16</dim>
					<dim>32</dim>
				</port>
			</input>
			<output>
				<port id="1" precision="FP32">
					<dim>16</dim>
					<dim>32</dim>
				</port>
			</output>
		</layer>
		<layer id="260" name="__module.encoder.score_predictor.0.score_nets.1.5/aten::linear/MatMul" type="MatMul" version="opset1">
			<data transpose_a="false" transpose_b="true" />
			<input>
				<port id="0" precision="FP32">
					<dim>1</dim>
					<dim>18369</dim>
					<dim>32</dim>
				</port>
				<port id="1" precision="FP32">
					<dim>16</dim>
					<dim>32</dim>
				</port>
			</input>
			<output>
				<port id="2" precision="FP32">
					<dim>1</dim>
					<dim>18369</dim>
					<dim>16</dim>
				</port>
			</output>
		</layer>
		<layer id="261" name="Constant_110406_compressed" type="Const" version="opset1">
			<data element_type="f16" shape="1, 1, 16" offset="606142" size="32" />
			<output>
				<port id="0" precision="FP16">
					<dim>1</dim>
					<dim>1</dim>
					<dim>16</dim>
				</port>
			</output>
		</layer>
		<layer id="262" name="Constant_110406" type="Convert" version="opset1">
			<data destination_type="f32" />
			<rt_info>
				<attribute name="decompression" version="0" />
			</rt_info>
			<input>
				<port id="0" precision="FP16">
					<dim>1</dim>
					<dim>1</dim>
					<dim>16</dim>
				</port>
			</input>
			<output>
				<port id="1" precision="FP32">
					<dim>1</dim>
					<dim>1</dim>
					<dim>16</dim>
				</port>
			</output>
		</layer>
		<layer id="263" name="__module.encoder.score_predictor.0.score_nets.1.5/aten::linear/Add" type="Add" version="opset1">
			<data auto_broadcast="numpy" />
			<input>
				<port id="0" precision="FP32">
					<dim>1</dim>
					<dim>18369</dim>
					<dim>16</dim>
				</port>
				<port id="1" precision="FP32">
					<dim>1</dim>
					<dim>1</dim>
					<dim>16</dim>
				</port>
			</input>
			<output>
				<port id="2" precision="FP32" names="232,input.35">
					<dim>1</dim>
					<dim>18369</dim>
					<dim>16</dim>
				</port>
			</output>
		</layer>
		<layer id="264" name="__module.encoder.score_predictor.0.score_nets.1.6/aten::gelu/Gelu" type="Gelu" version="opset7">
			<data approximation_mode="ERF" />
			<input>
				<port id="0" precision="FP32">
					<dim>1</dim>
					<dim>18369</dim>
					<dim>16</dim>
				</port>
			</input>
			<output>
				<port id="1" precision="FP32" names="233,input.37">
					<dim>1</dim>
					<dim>18369</dim>
					<dim>16</dim>
				</port>
			</output>
		</layer>
		<layer id="265" name="self.encoder.score_predictor.0.score_nets.1.7.weight_compressed" type="Const" version="opset1">
			<data element_type="f16" shape="2, 16" offset="606174" size="64" />
			<output>
				<port id="0" precision="FP16" names="self.encoder.score_predictor.0.score_nets.1.7.weight">
					<dim>2</dim>
					<dim>16</dim>
				</port>
			</output>
		</layer>
		<layer id="266" name="self.encoder.score_predictor.0.score_nets.1.7.weight" type="Convert" version="opset1">
			<data destination_type="f32" />
			<rt_info>
				<attribute name="decompression" version="0" />
			</rt_info>
			<input>
				<port id="0" precision="FP16">
					<dim>2</dim>
					<dim>16</dim>
				</port>
			</input>
			<output>
				<port id="1" precision="FP32">
					<dim>2</dim>
					<dim>16</dim>
				</port>
			</output>
		</layer>
		<layer id="267" name="__module.encoder.score_predictor.0.score_nets.1.7/aten::linear/MatMul" type="MatMul" version="opset1">
			<data transpose_a="false" transpose_b="true" />
			<input>
				<port id="0" precision="FP32">
					<dim>1</dim>
					<dim>18369</dim>
					<dim>16</dim>
				</port>
				<port id="1" precision="FP32">
					<dim>2</dim>
					<dim>16</dim>
				</port>
			</input>
			<output>
				<port id="2" precision="FP32">
					<dim>1</dim>
					<dim>18369</dim>
					<dim>2</dim>
				</port>
			</output>
		</layer>
		<layer id="268" name="Constant_110407_compressed" type="Const" version="opset1">
			<data element_type="f16" shape="1, 1, 2" offset="606238" size="4" />
			<output>
				<port id="0" precision="FP16">
					<dim>1</dim>
					<dim>1</dim>
					<dim>2</dim>
				</port>
			</output>
		</layer>
		<layer id="269" name="Constant_110407" type="Convert" version="opset1">
			<data destination_type="f32" />
			<rt_info>
				<attribute name="decompression" version="0" />
			</rt_info>
			<input>
				<port id="0" precision="FP16">
					<dim>1</dim>
					<dim>1</dim>
					<dim>2</dim>
				</port>
			</input>
			<output>
				<port id="1" precision="FP32">
					<dim>1</dim>
					<dim>1</dim>
					<dim>2</dim>
				</port>
			</output>
		</layer>
		<layer id="270" name="__module.encoder.score_predictor.0.score_nets.1.7/aten::linear/Add" type="Add" version="opset1">
			<data auto_broadcast="numpy" />
			<input>
				<port id="0" precision="FP32">
					<dim>1</dim>
					<dim>18369</dim>
					<dim>2</dim>
				</port>
				<port id="1" precision="FP32">
					<dim>1</dim>
					<dim>1</dim>
					<dim>2</dim>
				</port>
			</input>
			<output>
				<port id="2" precision="FP32" names="236,input.39">
					<dim>1</dim>
					<dim>18369</dim>
					<dim>2</dim>
				</port>
			</output>
		</layer>
		<layer id="271" name="__module.encoder.score_predictor.0.score_nets.1.8/aten::log_softmax/LogSoftmax" type="LogSoftmax" version="opset5">
			<data axis="-1" />
			<input>
				<port id="0" precision="FP32">
					<dim>1</dim>
					<dim>18369</dim>
					<dim>2</dim>
				</port>
			</input>
			<output>
				<port id="1" precision="FP32" names="237,240,score_.3">
					<dim>1</dim>
					<dim>18369</dim>
					<dim>2</dim>
				</port>
			</output>
		</layer>
		<layer id="272" name="Constant_644" type="Const" version="opset1">
			<data element_type="i64" shape="3" offset="591552" size="24" />
			<rt_info>
				<attribute name="precise" version="0" />
			</rt_info>
			<output>
				<port id="0" precision="I64">
					<dim>3</dim>
				</port>
			</output>
		</layer>
		<layer id="273" name="__module.encoder/aten::reshape/Reshape_1" type="Reshape" version="opset1">
			<data special_zero="false" />
			<input>
				<port id="0" precision="FP32">
					<dim>1</dim>
					<dim>18369</dim>
					<dim>2</dim>
				</port>
				<port id="1" precision="I64">
					<dim>3</dim>
				</port>
			</input>
			<output>
				<port id="2" precision="FP32" names="248,input.43">
					<dim>1</dim>
					<dim>18369</dim>
					<dim>2</dim>
				</port>
			</output>
		</layer>
		<layer id="274" name="__module.encoder/aten::softmax/Softmax_1" type="SoftMax" version="opset8">
			<data axis="2" />
			<input>
				<port id="0" precision="FP32">
					<dim>1</dim>
					<dim>18369</dim>
					<dim>2</dim>
				</port>
			</input>
			<output>
				<port id="1" precision="FP32" names="249,250,251">
					<dim>1</dim>
					<dim>18369</dim>
					<dim>2</dim>
				</port>
			</output>
		</layer>
		<layer id="275" name="__module.encoder/aten::select/Gather_1" type="Gather" version="opset8">
			<data batch_dims="0" />
			<input>
				<port id="0" precision="FP32">
					<dim>1</dim>
					<dim>18369</dim>
					<dim>2</dim>
				</port>
				<port id="1" precision="I64" />
				<port id="2" precision="I64" />
			</input>
			<output>
				<port id="3" precision="FP32" names="252,mask_.3">
					<dim>1</dim>
					<dim>18369</dim>
				</port>
			</output>
		</layer>
		<layer id="276" name="__module.encoder.block1.0.attn/aten::unsqueeze/Unsqueeze_1" type="Unsqueeze" version="opset1">
			<input>
				<port id="0" precision="FP32">
					<dim>1</dim>
					<dim>18369</dim>
				</port>
				<port id="1" precision="I64" />
			</input>
			<output>
				<port id="2" precision="FP32" names="412">
					<dim>1</dim>
					<dim>18369</dim>
					<dim>1</dim>
				</port>
			</output>
		</layer>
		<layer id="277" name="__module.encoder.block1.0.attn/aten::mul/Multiply_3" type="Multiply" version="opset1">
			<data auto_broadcast="numpy" />
			<input>
				<port id="0" precision="FP32">
					<dim>1</dim>
					<dim>18369</dim>
					<dim>64</dim>
				</port>
				<port id="1" precision="FP32">
					<dim>1</dim>
					<dim>18369</dim>
					<dim>1</dim>
				</port>
			</input>
			<output>
				<port id="2" precision="FP32" names="413,x1.1">
					<dim>1</dim>
					<dim>18369</dim>
					<dim>64</dim>
				</port>
			</output>
		</layer>
		<layer id="278" name="Constant_110409_compressed" type="Const" version="opset1">
			<data element_type="f16" shape="1, 1, 1" offset="606242" size="2" />
			<output>
				<port id="0" precision="FP16">
					<dim>1</dim>
					<dim>1</dim>
					<dim>1</dim>
				</port>
			</output>
		</layer>
		<layer id="279" name="Constant_110409" type="Convert" version="opset1">
			<data destination_type="f32" />
			<rt_info>
				<attribute name="decompression" version="0" />
			</rt_info>
			<input>
				<port id="0" precision="FP16">
					<dim>1</dim>
					<dim>1</dim>
					<dim>1</dim>
				</port>
			</input>
			<output>
				<port id="1" precision="FP32">
					<dim>1</dim>
					<dim>1</dim>
					<dim>1</dim>
				</port>
			</output>
		</layer>
		<layer id="280" name="Constant_110408_compressed" type="Const" version="opset1">
			<data element_type="f16" shape="1, 1, 1" offset="606242" size="2" />
			<output>
				<port id="0" precision="FP16">
					<dim>1</dim>
					<dim>1</dim>
					<dim>1</dim>
				</port>
			</output>
		</layer>
		<layer id="281" name="Constant_110408" type="Convert" version="opset1">
			<data destination_type="f32" />
			<rt_info>
				<attribute name="decompression" version="0" />
			</rt_info>
			<input>
				<port id="0" precision="FP16">
					<dim>1</dim>
					<dim>1</dim>
					<dim>1</dim>
				</port>
			</input>
			<output>
				<port id="1" precision="FP32">
					<dim>1</dim>
					<dim>1</dim>
					<dim>1</dim>
				</port>
			</output>
		</layer>
		<layer id="282" name="__module.encoder.block1.0.attn.exchange/aten::rsub/Multiply" type="Multiply" version="opset1">
			<data auto_broadcast="numpy" />
			<input>
				<port id="0" precision="FP32">
					<dim>1</dim>
					<dim>18369</dim>
					<dim>64</dim>
				</port>
				<port id="1" precision="FP32">
					<dim>1</dim>
					<dim>1</dim>
					<dim>1</dim>
				</port>
			</input>
			<output>
				<port id="2" precision="FP32">
					<dim>1</dim>
					<dim>18369</dim>
					<dim>64</dim>
				</port>
			</output>
		</layer>
		<layer id="283" name="__module.encoder.block1.0.attn.exchange/aten::rsub/Subtract" type="Subtract" version="opset1">
			<data auto_broadcast="numpy" />
			<input>
				<port id="0" precision="FP32">
					<dim>1</dim>
					<dim>1</dim>
					<dim>1</dim>
				</port>
				<port id="1" precision="FP32">
					<dim>1</dim>
					<dim>18369</dim>
					<dim>64</dim>
				</port>
			</input>
			<output>
				<port id="2" precision="FP32" names="427">
					<dim>1</dim>
					<dim>18369</dim>
					<dim>64</dim>
				</port>
			</output>
		</layer>
		<layer id="284" name="__module.encoder.block1.0.attn.exchange/aten::mul/Multiply_1" type="Multiply" version="opset1">
			<data auto_broadcast="numpy" />
			<input>
				<port id="0" precision="FP32">
					<dim>1</dim>
					<dim>18369</dim>
					<dim>64</dim>
				</port>
				<port id="1" precision="FP32">
					<dim>1</dim>
					<dim>18369</dim>
					<dim>64</dim>
				</port>
			</input>
			<output>
				<port id="2" precision="FP32" names="428">
					<dim>1</dim>
					<dim>18369</dim>
					<dim>64</dim>
				</port>
			</output>
		</layer>
		<layer id="285" name="__module.encoder.block1.0.attn.exchange/aten::add/Add" type="Add" version="opset1">
			<data auto_broadcast="numpy" />
			<input>
				<port id="0" precision="FP32">
					<dim>1</dim>
					<dim>18369</dim>
					<dim>64</dim>
				</port>
				<port id="1" precision="FP32">
					<dim>1</dim>
					<dim>18369</dim>
					<dim>64</dim>
				</port>
			</input>
			<output>
				<port id="2" precision="FP32" names="429,435,438,f_.1">
					<dim>1</dim>
					<dim>18369</dim>
					<dim>64</dim>
				</port>
			</output>
		</layer>
		<layer id="286" name="__module.encoder.block1.0/aten::add/Add" type="Add" version="opset1">
			<data auto_broadcast="numpy" />
			<input>
				<port id="0" precision="FP32">
					<dim>1</dim>
					<dim>18369</dim>
					<dim>64</dim>
				</port>
				<port id="1" precision="FP32">
					<dim>1</dim>
					<dim>18369</dim>
					<dim>64</dim>
				</port>
			</input>
			<output>
				<port id="2" precision="FP32" names="440,input.73">
					<dim>1</dim>
					<dim>18369</dim>
					<dim>64</dim>
				</port>
			</output>
		</layer>
		<layer id="287" name="__module.encoder.block1.0.norm2.ln_0/aten::layer_norm/Multiply" type="Const" version="opset1">
			<data element_type="i32" shape="1" offset="18982" size="4" />
			<output>
				<port id="0" precision="I32">
					<dim>1</dim>
				</port>
			</output>
		</layer>
		<layer id="288" name="__module.encoder.block1.0.norm2.ln_0/aten::layer_norm/MVN" type="MVN" version="opset6">
			<data eps="9.9999999747524271e-07" normalize_variance="true" eps_mode="INSIDE_SQRT" />
			<input>
				<port id="0" precision="FP32">
					<dim>1</dim>
					<dim>18369</dim>
					<dim>64</dim>
				</port>
				<port id="1" precision="I32">
					<dim>1</dim>
				</port>
			</input>
			<output>
				<port id="2" precision="FP32">
					<dim>1</dim>
					<dim>18369</dim>
					<dim>64</dim>
				</port>
			</output>
		</layer>
		<layer id="289" name="Constant_110410_compressed" type="Const" version="opset1">
			<data element_type="f16" shape="1, 1, 64" offset="606244" size="128" />
			<output>
				<port id="0" precision="FP16">
					<dim>1</dim>
					<dim>1</dim>
					<dim>64</dim>
				</port>
			</output>
		</layer>
		<layer id="290" name="Constant_110410" type="Convert" version="opset1">
			<data destination_type="f32" />
			<rt_info>
				<attribute name="decompression" version="0" />
			</rt_info>
			<input>
				<port id="0" precision="FP16">
					<dim>1</dim>
					<dim>1</dim>
					<dim>64</dim>
				</port>
			</input>
			<output>
				<port id="1" precision="FP32">
					<dim>1</dim>
					<dim>1</dim>
					<dim>64</dim>
				</port>
			</output>
		</layer>
		<layer id="291" name="__module.encoder.block1.0.norm2.ln_0/aten::layer_norm/Multiply_1" type="Multiply" version="opset1">
			<data auto_broadcast="numpy" />
			<input>
				<port id="0" precision="FP32">
					<dim>1</dim>
					<dim>18369</dim>
					<dim>64</dim>
				</port>
				<port id="1" precision="FP32">
					<dim>1</dim>
					<dim>1</dim>
					<dim>64</dim>
				</port>
			</input>
			<output>
				<port id="2" precision="FP32">
					<dim>1</dim>
					<dim>18369</dim>
					<dim>64</dim>
				</port>
			</output>
		</layer>
		<layer id="292" name="Constant_110411_compressed" type="Const" version="opset1">
			<data element_type="f16" shape="1, 1, 64" offset="606372" size="128" />
			<output>
				<port id="0" precision="FP16">
					<dim>1</dim>
					<dim>1</dim>
					<dim>64</dim>
				</port>
			</output>
		</layer>
		<layer id="293" name="Constant_110411" type="Convert" version="opset1">
			<data destination_type="f32" />
			<rt_info>
				<attribute name="decompression" version="0" />
			</rt_info>
			<input>
				<port id="0" precision="FP16">
					<dim>1</dim>
					<dim>1</dim>
					<dim>64</dim>
				</port>
			</input>
			<output>
				<port id="1" precision="FP32">
					<dim>1</dim>
					<dim>1</dim>
					<dim>64</dim>
				</port>
			</output>
		</layer>
		<layer id="294" name="__module.encoder.block1.0.norm2.ln_0/aten::layer_norm/Add" type="Add" version="opset1">
			<data auto_broadcast="numpy" />
			<input>
				<port id="0" precision="FP32">
					<dim>1</dim>
					<dim>18369</dim>
					<dim>64</dim>
				</port>
				<port id="1" precision="FP32">
					<dim>1</dim>
					<dim>1</dim>
					<dim>64</dim>
				</port>
			</input>
			<output>
				<port id="2" precision="FP32" names="447,453,input.77">
					<dim>1</dim>
					<dim>18369</dim>
					<dim>64</dim>
				</port>
			</output>
		</layer>
		<layer id="295" name="self.encoder.block1.0.mlp.fc1.module.weight_compressed" type="Const" version="opset1">
			<data element_type="f16" shape="256, 64" offset="606500" size="32768" />
			<output>
				<port id="0" precision="FP16" names="self.encoder.block1.0.mlp.fc1.module.weight">
					<dim>256</dim>
					<dim>64</dim>
				</port>
			</output>
		</layer>
		<layer id="296" name="self.encoder.block1.0.mlp.fc1.module.weight" type="Convert" version="opset1">
			<data destination_type="f32" />
			<rt_info>
				<attribute name="decompression" version="0" />
			</rt_info>
			<input>
				<port id="0" precision="FP16">
					<dim>256</dim>
					<dim>64</dim>
				</port>
			</input>
			<output>
				<port id="1" precision="FP32">
					<dim>256</dim>
					<dim>64</dim>
				</port>
			</output>
		</layer>
		<layer id="297" name="__module.encoder.block1.0.mlp.fc1.module/aten::linear/MatMul" type="MatMul" version="opset1">
			<data transpose_a="false" transpose_b="true" />
			<input>
				<port id="0" precision="FP32">
					<dim>1</dim>
					<dim>18369</dim>
					<dim>64</dim>
				</port>
				<port id="1" precision="FP32">
					<dim>256</dim>
					<dim>64</dim>
				</port>
			</input>
			<output>
				<port id="2" precision="FP32">
					<dim>1</dim>
					<dim>18369</dim>
					<dim>256</dim>
				</port>
			</output>
		</layer>
		<layer id="298" name="Constant_110412_compressed" type="Const" version="opset1">
			<data element_type="f16" shape="1, 1, 256" offset="639268" size="512" />
			<output>
				<port id="0" precision="FP16">
					<dim>1</dim>
					<dim>1</dim>
					<dim>256</dim>
				</port>
			</output>
		</layer>
		<layer id="299" name="Constant_110412" type="Convert" version="opset1">
			<data destination_type="f32" />
			<rt_info>
				<attribute name="decompression" version="0" />
			</rt_info>
			<input>
				<port id="0" precision="FP16">
					<dim>1</dim>
					<dim>1</dim>
					<dim>256</dim>
				</port>
			</input>
			<output>
				<port id="1" precision="FP32">
					<dim>1</dim>
					<dim>1</dim>
					<dim>256</dim>
				</port>
			</output>
		</layer>
		<layer id="300" name="__module.encoder.block1.0.mlp.fc1.module/aten::linear/Add" type="Add" version="opset1">
			<data auto_broadcast="numpy" />
			<input>
				<port id="0" precision="FP32">
					<dim>1</dim>
					<dim>18369</dim>
					<dim>256</dim>
				</port>
				<port id="1" precision="FP32">
					<dim>1</dim>
					<dim>1</dim>
					<dim>256</dim>
				</port>
			</input>
			<output>
				<port id="2" precision="FP32" names="461,466,x.1">
					<dim>1</dim>
					<dim>18369</dim>
					<dim>256</dim>
				</port>
			</output>
		</layer>
		<layer id="301" name="__module.encoder.block1.0.mlp.dwconv/aten::transpose/Constant" type="Const" version="opset1">
			<data element_type="i32" shape="3" offset="18970" size="12" />
			<output>
				<port id="0" precision="I32">
					<dim>3</dim>
				</port>
			</output>
		</layer>
		<layer id="302" name="__module.encoder.block1.0.mlp.dwconv/aten::transpose/Transpose" type="Transpose" version="opset1">
			<input>
				<port id="0" precision="FP32">
					<dim>1</dim>
					<dim>18369</dim>
					<dim>256</dim>
				</port>
				<port id="1" precision="I32">
					<dim>3</dim>
				</port>
			</input>
			<output>
				<port id="2" precision="FP32" names="471">
					<dim>1</dim>
					<dim>256</dim>
					<dim>18369</dim>
				</port>
			</output>
		</layer>
		<layer id="303" name="__module.encoder.block1.0.mlp.dwconv/aten::size/ShapeOf" type="ShapeOf" version="opset3">
			<data output_type="i64" />
			<input>
				<port id="0" precision="FP32">
					<dim>1</dim>
					<dim>18369</dim>
					<dim>256</dim>
				</port>
			</input>
			<output>
				<port id="1" precision="I64">
					<dim>3</dim>
				</port>
			</output>
		</layer>
		<layer id="304" name="Constant_104666" type="Const" version="opset1">
			<data element_type="i64" shape="2" offset="639780" size="16" />
			<rt_info>
				<attribute name="precise" version="0" />
			</rt_info>
			<output>
				<port id="0" precision="I64">
					<dim>2</dim>
				</port>
			</output>
		</layer>
		<layer id="305" name="Constant_104667" type="Const" version="opset1">
			<data element_type="i64" shape="" offset="569298" size="8" />
			<rt_info>
				<attribute name="precise" version="0" />
			</rt_info>
			<output>
				<port id="0" precision="I64" />
			</output>
		</layer>
		<layer id="306" name="Gather_104668" type="Gather" version="opset8">
			<data batch_dims="0" />
			<input>
				<port id="0" precision="I64">
					<dim>3</dim>
				</port>
				<port id="1" precision="I64">
					<dim>2</dim>
				</port>
				<port id="2" precision="I64" />
			</input>
			<output>
				<port id="3" precision="I64">
					<dim>2</dim>
				</port>
			</output>
		</layer>
		<layer id="307" name="Constant_104656" type="Const" version="opset1">
			<data element_type="i64" shape="2" offset="639796" size="16" />
			<rt_info>
				<attribute name="precise" version="0" />
			</rt_info>
			<output>
				<port id="0" precision="I64">
					<dim>2</dim>
				</port>
			</output>
		</layer>
		<layer id="308" name="Constant_104657" type="Const" version="opset1">
			<data element_type="i64" shape="" offset="569298" size="8" />
			<rt_info>
				<attribute name="precise" version="0" />
			</rt_info>
			<output>
				<port id="0" precision="I64" />
			</output>
		</layer>
		<layer id="309" name="Gather_104658" type="Gather" version="opset8">
			<data batch_dims="0" />
			<input>
				<port id="0" precision="I64">
					<dim>4</dim>
				</port>
				<port id="1" precision="I64">
					<dim>2</dim>
				</port>
				<port id="2" precision="I64" />
			</input>
			<output>
				<port id="3" precision="I64">
					<dim>2</dim>
				</port>
			</output>
		</layer>
		<layer id="310" name="__module.encoder.block1.0.mlp.dwconv/prim::ListConstruct" type="Concat" version="opset1">
			<data axis="0" />
			<input>
				<port id="0" precision="I64">
					<dim>2</dim>
				</port>
				<port id="1" precision="I64">
					<dim>2</dim>
				</port>
			</input>
			<output>
				<port id="2" precision="I64">
					<dim>4</dim>
				</port>
			</output>
		</layer>
		<layer id="311" name="__module.encoder.block1.0.mlp.dwconv/aten::view/Reshape" type="Reshape" version="opset1">
			<data special_zero="false" />
			<input>
				<port id="0" precision="FP32">
					<dim>1</dim>
					<dim>256</dim>
					<dim>18369</dim>
				</port>
				<port id="1" precision="I64">
					<dim>4</dim>
				</port>
			</input>
			<output>
				<port id="2" precision="FP32" names="473,input.81">
					<dim>1</dim>
					<dim>256</dim>
					<dim>117</dim>
					<dim>157</dim>
				</port>
			</output>
		</layer>
		<layer id="312" name="__module.encoder.block1.0.mlp.dwconv.dwconv/aten::_convolution/Reshape_compressed" type="Const" version="opset1">
			<data element_type="f16" shape="256, 1, 1, 3, 3" offset="639812" size="4608" />
			<output>
				<port id="0" precision="FP16">
					<dim>256</dim>
					<dim>1</dim>
					<dim>1</dim>
					<dim>3</dim>
					<dim>3</dim>
				</port>
			</output>
		</layer>
		<layer id="313" name="__module.encoder.block1.0.mlp.dwconv.dwconv/aten::_convolution/Reshape" type="Convert" version="opset1">
			<data destination_type="f32" />
			<rt_info>
				<attribute name="decompression" version="0" />
			</rt_info>
			<input>
				<port id="0" precision="FP16">
					<dim>256</dim>
					<dim>1</dim>
					<dim>1</dim>
					<dim>3</dim>
					<dim>3</dim>
				</port>
			</input>
			<output>
				<port id="1" precision="FP32">
					<dim>256</dim>
					<dim>1</dim>
					<dim>1</dim>
					<dim>3</dim>
					<dim>3</dim>
				</port>
			</output>
		</layer>
		<layer id="314" name="__module.encoder.block1.0.mlp.dwconv.dwconv/aten::_convolution/GroupConvolution" type="GroupConvolution" version="opset1">
			<data strides="1, 1" pads_begin="1, 1" pads_end="1, 1" dilations="1, 1" auto_pad="explicit" />
			<input>
				<port id="0" precision="FP32">
					<dim>1</dim>
					<dim>256</dim>
					<dim>117</dim>
					<dim>157</dim>
				</port>
				<port id="1" precision="FP32">
					<dim>256</dim>
					<dim>1</dim>
					<dim>1</dim>
					<dim>3</dim>
					<dim>3</dim>
				</port>
			</input>
			<output>
				<port id="2" precision="FP32">
					<dim>1</dim>
					<dim>256</dim>
					<dim>117</dim>
					<dim>157</dim>
				</port>
			</output>
		</layer>
		<layer id="315" name="__module.encoder.block1.0.mlp.dwconv.dwconv/aten::_convolution/Reshape_1_compressed" type="Const" version="opset1">
			<data element_type="f16" shape="1, 256, 1, 1" offset="644420" size="512" />
			<output>
				<port id="0" precision="FP16">
					<dim>1</dim>
					<dim>256</dim>
					<dim>1</dim>
					<dim>1</dim>
				</port>
			</output>
		</layer>
		<layer id="316" name="__module.encoder.block1.0.mlp.dwconv.dwconv/aten::_convolution/Reshape_1" type="Convert" version="opset1">
			<data destination_type="f32" />
			<rt_info>
				<attribute name="decompression" version="0" />
			</rt_info>
			<input>
				<port id="0" precision="FP16">
					<dim>1</dim>
					<dim>256</dim>
					<dim>1</dim>
					<dim>1</dim>
				</port>
			</input>
			<output>
				<port id="1" precision="FP32">
					<dim>1</dim>
					<dim>256</dim>
					<dim>1</dim>
					<dim>1</dim>
				</port>
			</output>
		</layer>
		<layer id="317" name="__module.encoder.block1.0.mlp.dwconv.dwconv/aten::_convolution/Add" type="Add" version="opset1">
			<data auto_broadcast="numpy" />
			<input>
				<port id="0" precision="FP32">
					<dim>1</dim>
					<dim>256</dim>
					<dim>117</dim>
					<dim>157</dim>
				</port>
				<port id="1" precision="FP32">
					<dim>1</dim>
					<dim>256</dim>
					<dim>1</dim>
					<dim>1</dim>
				</port>
			</input>
			<output>
				<port id="2" precision="FP32" names="480,x.3">
					<dim>1</dim>
					<dim>256</dim>
					<dim>117</dim>
					<dim>157</dim>
				</port>
			</output>
		</layer>
		<layer id="318" name="Constant_114094" type="Const" version="opset1">
			<data element_type="i64" shape="3" offset="644932" size="24" />
			<rt_info>
				<attribute name="precise" version="0" />
			</rt_info>
			<output>
				<port id="0" precision="I64">
					<dim>3</dim>
				</port>
			</output>
		</layer>
		<layer id="319" name="__module.encoder.block1.0.mlp.dwconv/aten::flatten/Reshape" type="Reshape" version="opset1">
			<data special_zero="true" />
			<input>
				<port id="0" precision="FP32">
					<dim>1</dim>
					<dim>256</dim>
					<dim>117</dim>
					<dim>157</dim>
				</port>
				<port id="1" precision="I64">
					<dim>3</dim>
				</port>
			</input>
			<output>
				<port id="2" precision="FP32" names="481">
					<dim>1</dim>
					<dim>256</dim>
					<dim>18369</dim>
				</port>
			</output>
		</layer>
		<layer id="320" name="__module.encoder.block1.0.mlp.dwconv/aten::transpose/Constant_1" type="Const" version="opset1">
			<data element_type="i32" shape="3" offset="18970" size="12" />
			<output>
				<port id="0" precision="I32">
					<dim>3</dim>
				</port>
			</output>
		</layer>
		<layer id="321" name="__module.encoder.block1.0.mlp.dwconv/aten::transpose/Transpose_1" type="Transpose" version="opset1">
			<input>
				<port id="0" precision="FP32">
					<dim>1</dim>
					<dim>256</dim>
					<dim>18369</dim>
				</port>
				<port id="1" precision="I32">
					<dim>3</dim>
				</port>
			</input>
			<output>
				<port id="2" precision="FP32" names="482,input.85">
					<dim>1</dim>
					<dim>18369</dim>
					<dim>256</dim>
				</port>
			</output>
		</layer>
		<layer id="322" name="__module.encoder.block1.0.mlp.act.module/aten::gelu/Gelu" type="Gelu" version="opset7">
			<data approximation_mode="ERF" />
			<input>
				<port id="0" precision="FP32">
					<dim>1</dim>
					<dim>18369</dim>
					<dim>256</dim>
				</port>
			</input>
			<output>
				<port id="1" precision="FP32" names="498,501,506,input.89">
					<dim>1</dim>
					<dim>18369</dim>
					<dim>256</dim>
				</port>
			</output>
		</layer>
		<layer id="323" name="self.encoder.block1.0.mlp.fc2.module.weight_compressed" type="Const" version="opset1">
			<data element_type="f16" shape="64, 256" offset="644956" size="32768" />
			<output>
				<port id="0" precision="FP16" names="self.encoder.block1.0.mlp.fc2.module.weight">
					<dim>64</dim>
					<dim>256</dim>
				</port>
			</output>
		</layer>
		<layer id="324" name="self.encoder.block1.0.mlp.fc2.module.weight" type="Convert" version="opset1">
			<data destination_type="f32" />
			<rt_info>
				<attribute name="decompression" version="0" />
			</rt_info>
			<input>
				<port id="0" precision="FP16">
					<dim>64</dim>
					<dim>256</dim>
				</port>
			</input>
			<output>
				<port id="1" precision="FP32">
					<dim>64</dim>
					<dim>256</dim>
				</port>
			</output>
		</layer>
		<layer id="325" name="__module.encoder.block1.0.mlp.fc2.module/aten::linear/MatMul" type="MatMul" version="opset1">
			<data transpose_a="false" transpose_b="true" />
			<input>
				<port id="0" precision="FP32">
					<dim>1</dim>
					<dim>18369</dim>
					<dim>256</dim>
				</port>
				<port id="1" precision="FP32">
					<dim>64</dim>
					<dim>256</dim>
				</port>
			</input>
			<output>
				<port id="2" precision="FP32">
					<dim>1</dim>
					<dim>18369</dim>
					<dim>64</dim>
				</port>
			</output>
		</layer>
		<layer id="326" name="Constant_110413_compressed" type="Const" version="opset1">
			<data element_type="f16" shape="1, 1, 64" offset="677724" size="128" />
			<output>
				<port id="0" precision="FP16">
					<dim>1</dim>
					<dim>1</dim>
					<dim>64</dim>
				</port>
			</output>
		</layer>
		<layer id="327" name="Constant_110413" type="Convert" version="opset1">
			<data destination_type="f32" />
			<rt_info>
				<attribute name="decompression" version="0" />
			</rt_info>
			<input>
				<port id="0" precision="FP16">
					<dim>1</dim>
					<dim>1</dim>
					<dim>64</dim>
				</port>
			</input>
			<output>
				<port id="1" precision="FP32">
					<dim>1</dim>
					<dim>1</dim>
					<dim>64</dim>
				</port>
			</output>
		</layer>
		<layer id="328" name="__module.encoder.block1.0.mlp.fc2.module/aten::linear/Add" type="Add" version="opset1">
			<data auto_broadcast="numpy" />
			<input>
				<port id="0" precision="FP32">
					<dim>1</dim>
					<dim>18369</dim>
					<dim>64</dim>
				</port>
				<port id="1" precision="FP32">
					<dim>1</dim>
					<dim>1</dim>
					<dim>64</dim>
				</port>
			</input>
			<output>
				<port id="2" precision="FP32" names="511,516,521,524,input.97">
					<dim>1</dim>
					<dim>18369</dim>
					<dim>64</dim>
				</port>
			</output>
		</layer>
		<layer id="329" name="__module.encoder.block1.0/aten::add/Add_1" type="Add" version="opset1">
			<data auto_broadcast="numpy" />
			<input>
				<port id="0" precision="FP32">
					<dim>1</dim>
					<dim>18369</dim>
					<dim>64</dim>
				</port>
				<port id="1" precision="FP32">
					<dim>1</dim>
					<dim>18369</dim>
					<dim>64</dim>
				</port>
			</input>
			<output>
				<port id="2" precision="FP32" names="526,529,input.101">
					<dim>1</dim>
					<dim>18369</dim>
					<dim>64</dim>
				</port>
			</output>
		</layer>
		<layer id="330" name="__module.encoder.block1.1.norm1.ln_0/aten::layer_norm/Multiply" type="Const" version="opset1">
			<data element_type="i32" shape="1" offset="18982" size="4" />
			<output>
				<port id="0" precision="I32">
					<dim>1</dim>
				</port>
			</output>
		</layer>
		<layer id="331" name="__module.encoder.block1.1.norm1.ln_0/aten::layer_norm/MVN" type="MVN" version="opset6">
			<data eps="9.9999999747524271e-07" normalize_variance="true" eps_mode="INSIDE_SQRT" />
			<input>
				<port id="0" precision="FP32">
					<dim>1</dim>
					<dim>18369</dim>
					<dim>64</dim>
				</port>
				<port id="1" precision="I32">
					<dim>1</dim>
				</port>
			</input>
			<output>
				<port id="2" precision="FP32">
					<dim>1</dim>
					<dim>18369</dim>
					<dim>64</dim>
				</port>
			</output>
		</layer>
		<layer id="332" name="Constant_110414_compressed" type="Const" version="opset1">
			<data element_type="f16" shape="1, 1, 64" offset="677852" size="128" />
			<output>
				<port id="0" precision="FP16">
					<dim>1</dim>
					<dim>1</dim>
					<dim>64</dim>
				</port>
			</output>
		</layer>
		<layer id="333" name="Constant_110414" type="Convert" version="opset1">
			<data destination_type="f32" />
			<rt_info>
				<attribute name="decompression" version="0" />
			</rt_info>
			<input>
				<port id="0" precision="FP16">
					<dim>1</dim>
					<dim>1</dim>
					<dim>64</dim>
				</port>
			</input>
			<output>
				<port id="1" precision="FP32">
					<dim>1</dim>
					<dim>1</dim>
					<dim>64</dim>
				</port>
			</output>
		</layer>
		<layer id="334" name="__module.encoder.block1.1.norm1.ln_0/aten::layer_norm/Multiply_1" type="Multiply" version="opset1">
			<data auto_broadcast="numpy" />
			<input>
				<port id="0" precision="FP32">
					<dim>1</dim>
					<dim>18369</dim>
					<dim>64</dim>
				</port>
				<port id="1" precision="FP32">
					<dim>1</dim>
					<dim>1</dim>
					<dim>64</dim>
				</port>
			</input>
			<output>
				<port id="2" precision="FP32">
					<dim>1</dim>
					<dim>18369</dim>
					<dim>64</dim>
				</port>
			</output>
		</layer>
		<layer id="335" name="Constant_110415_compressed" type="Const" version="opset1">
			<data element_type="f16" shape="1, 1, 64" offset="677980" size="128" />
			<output>
				<port id="0" precision="FP16">
					<dim>1</dim>
					<dim>1</dim>
					<dim>64</dim>
				</port>
			</output>
		</layer>
		<layer id="336" name="Constant_110415" type="Convert" version="opset1">
			<data destination_type="f32" />
			<rt_info>
				<attribute name="decompression" version="0" />
			</rt_info>
			<input>
				<port id="0" precision="FP16">
					<dim>1</dim>
					<dim>1</dim>
					<dim>64</dim>
				</port>
			</input>
			<output>
				<port id="1" precision="FP32">
					<dim>1</dim>
					<dim>1</dim>
					<dim>64</dim>
				</port>
			</output>
		</layer>
		<layer id="337" name="__module.encoder.block1.1.norm1.ln_0/aten::layer_norm/Add" type="Add" version="opset1">
			<data auto_broadcast="numpy" />
			<input>
				<port id="0" precision="FP32">
					<dim>1</dim>
					<dim>18369</dim>
					<dim>64</dim>
				</port>
				<port id="1" precision="FP32">
					<dim>1</dim>
					<dim>1</dim>
					<dim>64</dim>
				</port>
			</input>
			<output>
				<port id="2" precision="FP32" names="609,615,input.141">
					<dim>1</dim>
					<dim>18369</dim>
					<dim>64</dim>
				</port>
			</output>
		</layer>
		<layer id="338" name="self.encoder.block1.1.attn.q.module.weight_compressed" type="Const" version="opset1">
			<data element_type="f16" shape="64, 64" offset="678108" size="8192" />
			<output>
				<port id="0" precision="FP16" names="self.encoder.block1.1.attn.q.module.weight">
					<dim>64</dim>
					<dim>64</dim>
				</port>
			</output>
		</layer>
		<layer id="339" name="self.encoder.block1.1.attn.q.module.weight" type="Convert" version="opset1">
			<data destination_type="f32" />
			<rt_info>
				<attribute name="decompression" version="0" />
			</rt_info>
			<input>
				<port id="0" precision="FP16">
					<dim>64</dim>
					<dim>64</dim>
				</port>
			</input>
			<output>
				<port id="1" precision="FP32">
					<dim>64</dim>
					<dim>64</dim>
				</port>
			</output>
		</layer>
		<layer id="340" name="__module.encoder.block1.1.attn.q.module/aten::linear/MatMul" type="MatMul" version="opset1">
			<data transpose_a="false" transpose_b="true" />
			<input>
				<port id="0" precision="FP32">
					<dim>1</dim>
					<dim>18369</dim>
					<dim>64</dim>
				</port>
				<port id="1" precision="FP32">
					<dim>64</dim>
					<dim>64</dim>
				</port>
			</input>
			<output>
				<port id="2" precision="FP32">
					<dim>1</dim>
					<dim>18369</dim>
					<dim>64</dim>
				</port>
			</output>
		</layer>
		<layer id="341" name="Constant_110416_compressed" type="Const" version="opset1">
			<data element_type="f16" shape="1, 1, 64" offset="686300" size="128" />
			<output>
				<port id="0" precision="FP16">
					<dim>1</dim>
					<dim>1</dim>
					<dim>64</dim>
				</port>
			</output>
		</layer>
		<layer id="342" name="Constant_110416" type="Convert" version="opset1">
			<data destination_type="f32" />
			<rt_info>
				<attribute name="decompression" version="0" />
			</rt_info>
			<input>
				<port id="0" precision="FP16">
					<dim>1</dim>
					<dim>1</dim>
					<dim>64</dim>
				</port>
			</input>
			<output>
				<port id="1" precision="FP32">
					<dim>1</dim>
					<dim>1</dim>
					<dim>64</dim>
				</port>
			</output>
		</layer>
		<layer id="343" name="__module.encoder.block1.1.attn.q.module/aten::linear/Add" type="Add" version="opset1">
			<data auto_broadcast="numpy" />
			<input>
				<port id="0" precision="FP32">
					<dim>1</dim>
					<dim>18369</dim>
					<dim>64</dim>
				</port>
				<port id="1" precision="FP32">
					<dim>1</dim>
					<dim>1</dim>
					<dim>64</dim>
				</port>
			</input>
			<output>
				<port id="2" precision="FP32" names="629,634,q_.9">
					<dim>1</dim>
					<dim>18369</dim>
					<dim>64</dim>
				</port>
			</output>
		</layer>
		<layer id="344" name="Constant_114095" type="Const" version="opset1">
			<data element_type="i64" shape="4" offset="27818" size="32" />
			<rt_info>
				<attribute name="precise" version="0" />
			</rt_info>
			<output>
				<port id="0" precision="I64">
					<dim>4</dim>
				</port>
			</output>
		</layer>
		<layer id="345" name="__module.encoder.block1.1.attn/aten::reshape/Reshape" type="Reshape" version="opset1">
			<data special_zero="true" />
			<input>
				<port id="0" precision="FP32">
					<dim>1</dim>
					<dim>18369</dim>
					<dim>64</dim>
				</port>
				<port id="1" precision="I64">
					<dim>4</dim>
				</port>
			</input>
			<output>
				<port id="2" precision="FP32" names="639">
					<dim>1</dim>
					<dim>18369</dim>
					<dim>1</dim>
					<dim>64</dim>
				</port>
			</output>
		</layer>
		<layer id="346" name="Constant_107449" type="Const" version="opset1">
			<data element_type="i64" shape="4" offset="27850" size="32" />
			<rt_info>
				<attribute name="precise" version="0" />
			</rt_info>
			<output>
				<port id="0" precision="I64">
					<dim>4</dim>
				</port>
			</output>
		</layer>
		<layer id="347" name="__module.encoder.block1.1.attn/aten::permute/Transpose" type="Reshape" version="opset1">
			<data special_zero="true" />
			<input>
				<port id="0" precision="FP32">
					<dim>1</dim>
					<dim>18369</dim>
					<dim>1</dim>
					<dim>64</dim>
				</port>
				<port id="1" precision="I64">
					<dim>4</dim>
				</port>
			</input>
…
		<edge from-layer="4437" from-port="1" to-layer="4438" to-port="1" />
		<edge from-layer="4438" from-port="2" to-layer="4439" to-port="0" />
		<edge from-layer="4439" from-port="1" to-layer="4440" to-port="0" />
		<edge from-layer="4440" from-port="2" to-layer="4443" to-port="0" />
		<edge from-layer="4441" from-port="0" to-layer="4442" to-port="0" />
		<edge from-layer="4442" from-port="1" to-layer="4443" to-port="1" />
		<edge from-layer="4443" from-port="2" to-layer="4444" to-port="0" />
		<edge from-layer="4444" from-port="1" to-layer="4446" to-port="0" />
		<edge from-layer="4445" from-port="0" to-layer="4446" to-port="1" />
		<edge from-layer="4446" from-port="2" to-layer="4447" to-port="0" />
		<edge from-layer="4447" from-port="1" to-layer="4448" to-port="0" />
		<edge from-layer="4448" from-port="3" to-layer="4453" to-port="0" />
		<edge from-layer="4448" from-port="3" to-layer="4449" to-port="0" />
		<edge from-layer="4449" from-port="2" to-layer="4450" to-port="1" />
		<edge from-layer="4450" from-port="2" to-layer="4457" to-port="0" />
		<edge from-layer="4450" from-port="2" to-layer="4721" to-port="0" />
		<edge from-layer="4451" from-port="0" to-layer="4452" to-port="0" />
		<edge from-layer="4452" from-port="1" to-layer="4453" to-port="1" />
		<edge from-layer="4453" from-port="2" to-layer="4454" to-port="0" />
		<edge from-layer="4454" from-port="2" to-layer="4455" to-port="0" />
		<edge from-layer="4455" from-port="2" to-layer="4456" to-port="0" />
		<edge from-layer="4456" from-port="1" to-layer="4457" to-port="1" />
		<edge from-layer="4456" from-port="1" to-layer="4581" to-port="0" />
		<edge from-layer="4457" from-port="2" to-layer="4584" to-port="0" />
		<edge from-layer="4458" from-port="0" to-layer="4459" to-port="0" />
		<edge from-layer="4459" from-port="1" to-layer="4460" to-port="1" />
		<edge from-layer="4460" from-port="2" to-layer="4461" to-port="0" />
		<edge from-layer="4461" from-port="2" to-layer="4462" to-port="0" />
		<edge from-layer="4462" from-port="2" to-layer="4463" to-port="0" />
		<edge from-layer="4463" from-port="1" to-layer="4464" to-port="1" />
		<edge from-layer="4463" from-port="1" to-layer="4469" to-port="0" />
		<edge from-layer="4464" from-port="2" to-layer="4472" to-port="0" />
		<edge from-layer="4465" from-port="0" to-layer="4466" to-port="0" />
		<edge from-layer="4466" from-port="1" to-layer="4470" to-port="0" />
		<edge from-layer="4467" from-port="0" to-layer="4468" to-port="0" />
		<edge from-layer="4468" from-port="1" to-layer="4469" to-port="1" />
		<edge from-layer="4469" from-port="2" to-layer="4470" to-port="1" />
		<edge from-layer="4470" from-port="2" to-layer="4471" to-port="1" />
		<edge from-layer="4471" from-port="2" to-layer="4472" to-port="1" />
		<edge from-layer="4472" from-port="2" to-layer="4473" to-port="1" />
		<edge from-layer="4473" from-port="2" to-layer="4475" to-port="0" />
		<edge from-layer="4473" from-port="2" to-layer="4502" to-port="0" />
		<edge from-layer="4474" from-port="0" to-layer="4475" to-port="1" />
		<edge from-layer="4475" from-port="2" to-layer="4478" to-port="0" />
		<edge from-layer="4476" from-port="0" to-layer="4477" to-port="0" />
		<edge from-layer="4477" from-port="1" to-layer="4478" to-port="1" />
		<edge from-layer="4478" from-port="2" to-layer="4481" to-port="0" />
		<edge from-layer="4479" from-port="0" to-layer="4480" to-port="0" />
		<edge from-layer="4480" from-port="1" to-layer="4481" to-port="1" />
		<edge from-layer="4481" from-port="2" to-layer="4482" to-port="0" />
		<edge from-layer="4482" from-port="2" to-layer="4485" to-port="0" />
		<edge from-layer="4483" from-port="0" to-layer="4484" to-port="0" />
		<edge from-layer="4484" from-port="1" to-layer="4485" to-port="1" />
		<edge from-layer="4485" from-port="2" to-layer="4487" to-port="0" />
		<edge from-layer="4486" from-port="0" to-layer="4487" to-port="1" />
		<edge from-layer="4487" from-port="2" to-layer="4488" to-port="0" />
		<edge from-layer="4488" from-port="2" to-layer="4489" to-port="0" />
		<edge from-layer="4489" from-port="2" to-layer="4492" to-port="0" />
		<edge from-layer="4490" from-port="0" to-layer="4491" to-port="0" />
		<edge from-layer="4491" from-port="1" to-layer="4492" to-port="1" />
		<edge from-layer="4492" from-port="2" to-layer="4494" to-port="0" />
		<edge from-layer="4493" from-port="0" to-layer="4494" to-port="1" />
		<edge from-layer="4494" from-port="2" to-layer="4496" to-port="0" />
		<edge from-layer="4495" from-port="0" to-layer="4496" to-port="1" />
		<edge from-layer="4496" from-port="2" to-layer="4497" to-port="0" />
		<edge from-layer="4497" from-port="1" to-layer="4498" to-port="0" />
		<edge from-layer="4498" from-port="2" to-layer="4501" to-port="0" />
		<edge from-layer="4499" from-port="0" to-layer="4500" to-port="0" />
		<edge from-layer="4500" from-port="1" to-layer="4501" to-port="1" />
		<edge from-layer="4501" from-port="2" to-layer="4502" to-port="1" />
		<edge from-layer="4502" from-port="2" to-layer="4504" to-port="0" />
		<edge from-layer="4502" from-port="2" to-layer="4544" to-port="0" />
		<edge from-layer="4502" from-port="2" to-layer="4723" to-port="0" />
		<edge from-layer="4503" from-port="0" to-layer="4504" to-port="1" />
		<edge from-layer="4504" from-port="2" to-layer="4507" to-port="0" />
		<edge from-layer="4505" from-port="0" to-layer="4506" to-port="0" />
		<edge from-layer="4506" from-port="1" to-layer="4507" to-port="1" />
		<edge from-layer="4507" from-port="2" to-layer="4510" to-port="0" />
		<edge from-layer="4508" from-port="0" to-layer="4509" to-port="0" />
		<edge from-layer="4509" from-port="1" to-layer="4510" to-port="1" />
		<edge from-layer="4510" from-port="2" to-layer="4519" to-port="0" />
		<edge from-layer="4510" from-port="2" to-layer="4511" to-port="0" />
		<edge from-layer="4511" from-port="2" to-layer="4514" to-port="0" />
		<edge from-layer="4512" from-port="0" to-layer="4513" to-port="0" />
		<edge from-layer="4513" from-port="1" to-layer="4514" to-port="1" />
		<edge from-layer="4514" from-port="2" to-layer="4516" to-port="0" />
		<edge from-layer="4515" from-port="0" to-layer="4516" to-port="1" />
		<edge from-layer="4516" from-port="2" to-layer="4518" to-port="0" />
		<edge from-layer="4517" from-port="0" to-layer="4518" to-port="1" />
		<edge from-layer="4518" from-port="2" to-layer="4531" to-port="0" />
		<edge from-layer="4519" from-port="2" to-layer="4522" to-port="0" />
		<edge from-layer="4520" from-port="0" to-layer="4521" to-port="0" />
		<edge from-layer="4521" from-port="1" to-layer="4522" to-port="1" />
		<edge from-layer="4522" from-port="2" to-layer="4524" to-port="0" />
		<edge from-layer="4523" from-port="0" to-layer="4524" to-port="1" />
		<edge from-layer="4524" from-port="2" to-layer="4526" to-port="0" />
		<edge from-layer="4525" from-port="0" to-layer="4526" to-port="1" />
		<edge from-layer="4526" from-port="2" to-layer="4527" to-port="0" />
		<edge from-layer="4526" from-port="2" to-layer="4533" to-port="0" />
		<edge from-layer="4527" from-port="3" to-layer="4530" to-port="0" />
		<edge from-layer="4528" from-port="0" to-layer="4529" to-port="0" />
		<edge from-layer="4529" from-port="1" to-layer="4530" to-port="1" />
		<edge from-layer="4530" from-port="2" to-layer="4531" to-port="1" />
		<edge from-layer="4531" from-port="2" to-layer="4532" to-port="0" />
		<edge from-layer="4532" from-port="1" to-layer="4534" to-port="0" />
		<edge from-layer="4533" from-port="3" to-layer="4534" to-port="1" />
		<edge from-layer="4534" from-port="2" to-layer="4536" to-port="0" />
		<edge from-layer="4535" from-port="0" to-layer="4536" to-port="1" />
		<edge from-layer="4536" from-port="2" to-layer="4538" to-port="0" />
		<edge from-layer="4537" from-port="0" to-layer="4538" to-port="1" />
		<edge from-layer="4538" from-port="2" to-layer="4539" to-port="0" />
		<edge from-layer="4539" from-port="2" to-layer="4542" to-port="0" />
		<edge from-layer="4540" from-port="0" to-layer="4541" to-port="0" />
		<edge from-layer="4541" from-port="1" to-layer="4542" to-port="1" />
		<edge from-layer="4542" from-port="2" to-layer="4576" to-port="0" />
		<edge from-layer="4543" from-port="0" to-layer="4544" to-port="1" />
		<edge from-layer="4544" from-port="2" to-layer="4547" to-port="0" />
		<edge from-layer="4545" from-port="0" to-layer="4546" to-port="0" />
		<edge from-layer="4546" from-port="1" to-layer="4547" to-port="1" />
		<edge from-layer="4547" from-port="2" to-layer="4550" to-port="0" />
		<edge from-layer="4548" from-port="0" to-layer="4549" to-port="0" />
		<edge from-layer="4549" from-port="1" to-layer="4550" to-port="1" />
		<edge from-layer="4550" from-port="2" to-layer="4551" to-port="0" />
		<edge from-layer="4551" from-port="2" to-layer="4554" to-port="0" />
		<edge from-layer="4552" from-port="0" to-layer="4553" to-port="0" />
		<edge from-layer="4553" from-port="1" to-layer="4554" to-port="1" />
		<edge from-layer="4554" from-port="2" to-layer="4555" to-port="0" />
		<edge from-layer="4555" from-port="1" to-layer="4556" to-port="0" />
		<edge from-layer="4556" from-port="2" to-layer="4559" to-port="0" />
		<edge from-layer="4557" from-port="0" to-layer="4558" to-port="0" />
		<edge from-layer="4558" from-port="1" to-layer="4559" to-port="1" />
		<edge from-layer="4559" from-port="2" to-layer="4560" to-port="0" />
		<edge from-layer="4560" from-port="1" to-layer="4561" to-port="0" />
		<edge from-layer="4561" from-port="2" to-layer="4564" to-port="0" />
		<edge from-layer="4562" from-port="0" to-layer="4563" to-port="0" />
		<edge from-layer="4563" from-port="1" to-layer="4564" to-port="1" />
		<edge from-layer="4564" from-port="2" to-layer="4565" to-port="0" />
		<edge from-layer="4565" from-port="1" to-layer="4566" to-port="0" />
		<edge from-layer="4566" from-port="2" to-layer="4569" to-port="0" />
		<edge from-layer="4567" from-port="0" to-layer="4568" to-port="0" />
		<edge from-layer="4568" from-port="1" to-layer="4569" to-port="1" />
		<edge from-layer="4569" from-port="2" to-layer="4570" to-port="0" />
		<edge from-layer="4570" from-port="1" to-layer="4572" to-port="0" />
		<edge from-layer="4571" from-port="0" to-layer="4572" to-port="1" />
		<edge from-layer="4572" from-port="2" to-layer="4573" to-port="0" />
		<edge from-layer="4573" from-port="1" to-layer="4574" to-port="0" />
		<edge from-layer="4574" from-port="3" to-layer="4710" to-port="0" />
		<edge from-layer="4574" from-port="3" to-layer="4575" to-port="0" />
		<edge from-layer="4575" from-port="2" to-layer="4576" to-port="1" />
		<edge from-layer="4576" from-port="2" to-layer="4714" to-port="0" />
		<edge from-layer="4576" from-port="2" to-layer="4583" to-port="0" />
		<edge from-layer="4577" from-port="0" to-layer="4578" to-port="0" />
		<edge from-layer="4578" from-port="1" to-layer="4582" to-port="0" />
		<edge from-layer="4579" from-port="0" to-layer="4580" to-port="0" />
		<edge from-layer="4580" from-port="1" to-layer="4581" to-port="1" />
		<edge from-layer="4581" from-port="2" to-layer="4582" to-port="1" />
		<edge from-layer="4582" from-port="2" to-layer="4583" to-port="1" />
		<edge from-layer="4583" from-port="2" to-layer="4584" to-port="1" />
		<edge from-layer="4584" from-port="2" to-layer="4585" to-port="1" />
		<edge from-layer="4585" from-port="2" to-layer="4620" to-port="0" />
		<edge from-layer="4585" from-port="2" to-layer="4587" to-port="0" />
		<edge from-layer="4586" from-port="0" to-layer="4587" to-port="1" />
		<edge from-layer="4587" from-port="2" to-layer="4590" to-port="0" />
		<edge from-layer="4588" from-port="0" to-layer="4589" to-port="0" />
		<edge from-layer="4589" from-port="1" to-layer="4590" to-port="1" />
		<edge from-layer="4590" from-port="2" to-layer="4593" to-port="0" />
		<edge from-layer="4591" from-port="0" to-layer="4592" to-port="0" />
		<edge from-layer="4592" from-port="1" to-layer="4593" to-port="1" />
		<edge from-layer="4593" from-port="2" to-layer="4596" to-port="0" />
		<edge from-layer="4594" from-port="0" to-layer="4595" to-port="0" />
		<edge from-layer="4595" from-port="1" to-layer="4732" to-port="1" />
		<edge from-layer="4595" from-port="1" to-layer="4596" to-port="1" />
		<edge from-layer="4596" from-port="2" to-layer="4599" to-port="0" />
		<edge from-layer="4597" from-port="0" to-layer="4598" to-port="0" />
		<edge from-layer="4598" from-port="1" to-layer="4599" to-port="1" />
		<edge from-layer="4599" from-port="2" to-layer="4601" to-port="0" />
		<edge from-layer="4600" from-port="0" to-layer="4601" to-port="1" />
		<edge from-layer="4601" from-port="2" to-layer="4602" to-port="0" />
		<edge from-layer="4602" from-port="2" to-layer="4605" to-port="0" />
		<edge from-layer="4603" from-port="0" to-layer="4604" to-port="0" />
		<edge from-layer="4604" from-port="1" to-layer="4739" to-port="1" />
		<edge from-layer="4604" from-port="1" to-layer="4605" to-port="1" />
		<edge from-layer="4605" from-port="2" to-layer="4608" to-port="0" />
		<edge from-layer="4606" from-port="0" to-layer="4607" to-port="0" />
		<edge from-layer="4607" from-port="1" to-layer="4608" to-port="1" />
		<edge from-layer="4608" from-port="2" to-layer="4610" to-port="0" />
		<edge from-layer="4609" from-port="0" to-layer="4610" to-port="1" />
		<edge from-layer="4610" from-port="2" to-layer="4612" to-port="0" />
		<edge from-layer="4611" from-port="0" to-layer="4612" to-port="1" />
		<edge from-layer="4612" from-port="2" to-layer="4613" to-port="0" />
		<edge from-layer="4613" from-port="1" to-layer="4616" to-port="0" />
		<edge from-layer="4614" from-port="0" to-layer="4615" to-port="0" />
		<edge from-layer="4615" from-port="1" to-layer="4616" to-port="1" />
		<edge from-layer="4615" from-port="1" to-layer="4748" to-port="1" />
		<edge from-layer="4616" from-port="2" to-layer="4619" to-port="0" />
		<edge from-layer="4617" from-port="0" to-layer="4618" to-port="0" />
		<edge from-layer="4618" from-port="1" to-layer="4619" to-port="1" />
		<edge from-layer="4619" from-port="2" to-layer="4620" to-port="1" />
		<edge from-layer="4620" from-port="2" to-layer="4622" to-port="0" />
		<edge from-layer="4620" from-port="2" to-layer="4835" to-port="0" />
		<edge from-layer="4620" from-port="2" to-layer="4668" to-port="0" />
		<edge from-layer="4621" from-port="0" to-layer="4622" to-port="1" />
		<edge from-layer="4622" from-port="2" to-layer="4625" to-port="0" />
		<edge from-layer="4623" from-port="0" to-layer="4624" to-port="0" />
		<edge from-layer="4624" from-port="1" to-layer="4625" to-port="1" />
		<edge from-layer="4625" from-port="2" to-layer="4628" to-port="0" />
		<edge from-layer="4626" from-port="0" to-layer="4627" to-port="0" />
		<edge from-layer="4627" from-port="1" to-layer="4628" to-port="1" />
		<edge from-layer="4628" from-port="2" to-layer="4641" to-port="0" />
		<edge from-layer="4628" from-port="2" to-layer="4631" to-port="0" />
		<edge from-layer="4629" from-port="0" to-layer="4630" to-port="0" />
		<edge from-layer="4630" from-port="1" to-layer="4761" to-port="1" />
		<edge from-layer="4630" from-port="1" to-layer="4631" to-port="1" />
		<edge from-layer="4631" from-port="2" to-layer="4634" to-port="0" />
		<edge from-layer="4632" from-port="0" to-layer="4633" to-port="0" />
		<edge from-layer="4633" from-port="1" to-layer="4634" to-port="1" />
		<edge from-layer="4634" from-port="2" to-layer="4636" to-port="0" />
		<edge from-layer="4635" from-port="0" to-layer="4636" to-port="1" />
		<edge from-layer="4636" from-port="2" to-layer="4638" to-port="0" />
		<edge from-layer="4637" from-port="0" to-layer="4638" to-port="1" />
		<edge from-layer="4638" from-port="2" to-layer="4653" to-port="0" />
		<edge from-layer="4639" from-port="0" to-layer="4640" to-port="0" />
		<edge from-layer="4640" from-port="1" to-layer="4641" to-port="1" />
		<edge from-layer="4640" from-port="1" to-layer="4769" to-port="1" />
		<edge from-layer="4641" from-port="2" to-layer="4644" to-port="0" />
		<edge from-layer="4642" from-port="0" to-layer="4643" to-port="0" />
		<edge from-layer="4643" from-port="1" to-layer="4644" to-port="1" />
		<edge from-layer="4644" from-port="2" to-layer="4646" to-port="0" />
		<edge from-layer="4645" from-port="0" to-layer="4646" to-port="1" />
		<edge from-layer="4646" from-port="2" to-layer="4648" to-port="0" />
		<edge from-layer="4647" from-port="0" to-layer="4648" to-port="1" />
		<edge from-layer="4648" from-port="2" to-layer="4655" to-port="0" />
		<edge from-layer="4648" from-port="2" to-layer="4649" to-port="0" />
		<edge from-layer="4649" from-port="3" to-layer="4652" to-port="0" />
		<edge from-layer="4650" from-port="0" to-layer="4651" to-port="0" />
		<edge from-layer="4651" from-port="1" to-layer="4652" to-port="1" />
		<edge from-layer="4652" from-port="2" to-layer="4653" to-port="1" />
		<edge from-layer="4653" from-port="2" to-layer="4654" to-port="0" />
		<edge from-layer="4654" from-port="1" to-layer="4656" to-port="0" />
		<edge from-layer="4655" from-port="3" to-layer="4656" to-port="1" />
		<edge from-layer="4656" from-port="2" to-layer="4658" to-port="0" />
		<edge from-layer="4657" from-port="0" to-layer="4658" to-port="1" />
		<edge from-layer="4658" from-port="2" to-layer="4660" to-port="0" />
		<edge from-layer="4659" from-port="0" to-layer="4660" to-port="1" />
		<edge from-layer="4660" from-port="2" to-layer="4663" to-port="0" />
		<edge from-layer="4661" from-port="0" to-layer="4662" to-port="0" />
		<edge from-layer="4662" from-port="1" to-layer="4789" to-port="1" />
		<edge from-layer="4662" from-port="1" to-layer="4663" to-port="1" />
		<edge from-layer="4663" from-port="2" to-layer="4666" to-port="0" />
		<edge from-layer="4664" from-port="0" to-layer="4665" to-port="0" />
		<edge from-layer="4665" from-port="1" to-layer="4666" to-port="1" />
		<edge from-layer="4666" from-port="2" to-layer="4700" to-port="0" />
		<edge from-layer="4667" from-port="0" to-layer="4668" to-port="1" />
		<edge from-layer="4668" from-port="2" to-layer="4671" to-port="0" />
		<edge from-layer="4669" from-port="0" to-layer="4670" to-port="0" />
		<edge from-layer="4670" from-port="1" to-layer="4671" to-port="1" />
		<edge from-layer="4671" from-port="2" to-layer="4674" to-port="0" />
		<edge from-layer="4672" from-port="0" to-layer="4673" to-port="0" />
		<edge from-layer="4673" from-port="1" to-layer="4674" to-port="1" />
		<edge from-layer="4674" from-port="2" to-layer="4675" to-port="0" />
		<edge from-layer="4675" from-port="2" to-layer="4678" to-port="0" />
		<edge from-layer="4676" from-port="0" to-layer="4677" to-port="0" />
		<edge from-layer="4677" from-port="1" to-layer="4678" to-port="1" />
		<edge from-layer="4678" from-port="2" to-layer="4679" to-port="0" />
		<edge from-layer="4679" from-port="1" to-layer="4680" to-port="0" />
		<edge from-layer="4680" from-port="2" to-layer="4683" to-port="0" />
		<edge from-layer="4681" from-port="0" to-layer="4682" to-port="0" />
		<edge from-layer="4682" from-port="1" to-layer="4683" to-port="1" />
		<edge from-layer="4683" from-port="2" to-layer="4684" to-port="0" />
		<edge from-layer="4684" from-port="1" to-layer="4685" to-port="0" />
		<edge from-layer="4685" from-port="2" to-layer="4688" to-port="0" />
		<edge from-layer="4686" from-port="0" to-layer="4687" to-port="0" />
		<edge from-layer="4687" from-port="1" to-layer="4688" to-port="1" />
		<edge from-layer="4688" from-port="2" to-layer="4689" to-port="0" />
		<edge from-layer="4689" from-port="1" to-layer="4690" to-port="0" />
		<edge from-layer="4690" from-port="2" to-layer="4693" to-port="0" />
		<edge from-layer="4691" from-port="0" to-layer="4692" to-port="0" />
		<edge from-layer="4692" from-port="1" to-layer="4693" to-port="1" />
		<edge from-layer="4693" from-port="2" to-layer="4694" to-port="0" />
		<edge from-layer="4694" from-port="1" to-layer="4696" to-port="0" />
		<edge from-layer="4695" from-port="0" to-layer="4696" to-port="1" />
		<edge from-layer="4696" from-port="2" to-layer="4697" to-port="0" />
		<edge from-layer="4697" from-port="1" to-layer="4698" to-port="0" />
		<edge from-layer="4698" from-port="3" to-layer="4699" to-port="0" />
		<edge from-layer="4698" from-port="3" to-layer="4703" to-port="0" />
		<edge from-layer="4699" from-port="2" to-layer="4700" to-port="1" />
		<edge from-layer="4700" from-port="2" to-layer="4707" to-port="0" />
		<edge from-layer="4700" from-port="2" to-layer="4979" to-port="0" />
		<edge from-layer="4701" from-port="0" to-layer="4702" to-port="0" />
		<edge from-layer="4702" from-port="1" to-layer="4703" to-port="1" />
		<edge from-layer="4703" from-port="2" to-layer="4704" to-port="0" />
		<edge from-layer="4704" from-port="2" to-layer="4705" to-port="0" />
		<edge from-layer="4705" from-port="2" to-layer="4706" to-port="0" />
		<edge from-layer="4706" from-port="1" to-layer="4831" to-port="0" />
		<edge from-layer="4706" from-port="1" to-layer="4707" to-port="1" />
		<edge from-layer="4707" from-port="2" to-layer="4834" to-port="0" />
		<edge from-layer="4708" from-port="0" to-layer="4709" to-port="0" />
		<edge from-layer="4709" from-port="1" to-layer="4710" to-port="1" />
		<edge from-layer="4710" from-port="2" to-layer="4711" to-port="0" />
		<edge from-layer="4711" from-port="2" to-layer="4712" to-port="0" />
		<edge from-layer="4712" from-port="2" to-layer="4713" to-port="0" />
		<edge from-layer="4713" from-port="1" to-layer="4714" to-port="1" />
		<edge from-layer="4713" from-port="1" to-layer="4719" to-port="0" />
		<edge from-layer="4714" from-port="2" to-layer="4722" to-port="0" />
		<edge from-layer="4715" from-port="0" to-layer="4716" to-port="0" />
		<edge from-layer="4716" from-port="1" to-layer="4720" to-port="0" />
		<edge from-layer="4717" from-port="0" to-layer="4718" to-port="0" />
		<edge from-layer="4718" from-port="1" to-layer="4719" to-port="1" />
		<edge from-layer="4719" from-port="2" to-layer="4720" to-port="1" />
		<edge from-layer="4720" from-port="2" to-layer="4721" to-port="1" />
		<edge from-layer="4721" from-port="2" to-layer="4722" to-port="1" />
		<edge from-layer="4722" from-port="2" to-layer="4723" to-port="1" />
		<edge from-layer="4723" from-port="2" to-layer="4725" to-port="0" />
		<edge from-layer="4723" from-port="2" to-layer="4752" to-port="0" />
		<edge from-layer="4724" from-port="0" to-layer="4725" to-port="1" />
		<edge from-layer="4725" from-port="2" to-layer="4728" to-port="0" />
		<edge from-layer="4726" from-port="0" to-layer="4727" to-port="0" />
		<edge from-layer="4727" from-port="1" to-layer="4728" to-port="1" />
		<edge from-layer="4728" from-port="2" to-layer="4731" to-port="0" />
		<edge from-layer="4729" from-port="0" to-layer="4730" to-port="0" />
		<edge from-layer="4730" from-port="1" to-layer="4731" to-port="1" />
		<edge from-layer="4731" from-port="2" to-layer="4732" to-port="0" />
		<edge from-layer="4732" from-port="2" to-layer="4735" to-port="0" />
		<edge from-layer="4733" from-port="0" to-layer="4734" to-port="0" />
		<edge from-layer="4734" from-port="1" to-layer="4735" to-port="1" />
		<edge from-layer="4735" from-port="2" to-layer="4737" to-port="0" />
		<edge from-layer="4736" from-port="0" to-layer="4737" to-port="1" />
		<edge from-layer="4737" from-port="2" to-layer="4738" to-port="0" />
		<edge from-layer="4738" from-port="2" to-layer="4739" to-port="0" />
		<edge from-layer="4739" from-port="2" to-layer="4742" to-port="0" />
		<edge from-layer="4740" from-port="0" to-layer="4741" to-port="0" />
		<edge from-layer="4741" from-port="1" to-layer="4742" to-port="1" />
		<edge from-layer="4742" from-port="2" to-layer="4744" to-port="0" />
		<edge from-layer="4743" from-port="0" to-layer="4744" to-port="1" />
		<edge from-layer="4744" from-port="2" to-layer="4746" to-port="0" />
		<edge from-layer="4745" from-port="0" to-layer="4746" to-port="1" />
		<edge from-layer="4746" from-port="2" to-layer="4747" to-port="0" />
		<edge from-layer="4747" from-port="1" to-layer="4748" to-port="0" />
		<edge from-layer="4748" from-port="2" to-layer="4751" to-port="0" />
		<edge from-layer="4749" from-port="0" to-layer="4750" to-port="0" />
		<edge from-layer="4750" from-port="1" to-layer="4751" to-port="1" />
		<edge from-layer="4751" from-port="2" to-layer="4752" to-port="1" />
		<edge from-layer="4752" from-port="2" to-layer="4754" to-port="0" />
		<edge from-layer="4752" from-port="2" to-layer="4794" to-port="0" />
		<edge from-layer="4752" from-port="2" to-layer="4981" to-port="0" />
		<edge from-layer="4753" from-port="0" to-layer="4754" to-port="1" />
		<edge from-layer="4754" from-port="2" to-layer="4757" to-port="0" />
		<edge from-layer="4755" from-port="0" to-layer="4756" to-port="0" />
		<edge from-layer="4756" from-port="1" to-layer="4757" to-port="1" />
		<edge from-layer="4757" from-port="2" to-layer="4760" to-port="0" />
		<edge from-layer="4758" from-port="0" to-layer="4759" to-port="0" />
		<edge from-layer="4759" from-port="1" to-layer="4760" to-port="1" />
		<edge from-layer="4760" from-port="2" to-layer="4761" to-port="0" />
		<edge from-layer="4760" from-port="2" to-layer="4769" to-port="0" />
		<edge from-layer="4761" from-port="2" to-layer="4764" to-port="0" />
		<edge from-layer="4762" from-port="0" to-layer="4763" to-port="0" />
		<edge from-layer="4763" from-port="1" to-layer="4764" to-port="1" />
		<edge from-layer="4764" from-port="2" to-layer="4766" to-port="0" />
		<edge from-layer="4765" from-port="0" to-layer="4766" to-port="1" />
		<edge from-layer="4766" from-port="2" to-layer="4768" to-port="0" />
		<edge from-layer="4767" from-port="0" to-layer="4768" to-port="1" />
		<edge from-layer="4768" from-port="2" to-layer="4781" to-port="0" />
		<edge from-layer="4769" from-port="2" to-layer="4772" to-port="0" />
		<edge from-layer="4770" from-port="0" to-layer="4771" to-port="0" />
		<edge from-layer="4771" from-port="1" to-layer="4772" to-port="1" />
		<edge from-layer="4772" from-port="2" to-layer="4774" to-port="0" />
		<edge from-layer="4773" from-port="0" to-layer="4774" to-port="1" />
		<edge from-layer="4774" from-port="2" to-layer="4776" to-port="0" />
		<edge from-layer="4775" from-port="0" to-layer="4776" to-port="1" />
		<edge from-layer="4776" from-port="2" to-layer="4783" to-port="0" />
		<edge from-layer="4776" from-port="2" to-layer="4777" to-port="0" />
		<edge from-layer="4777" from-port="3" to-layer="4780" to-port="0" />
		<edge from-layer="4778" from-port="0" to-layer="4779" to-port="0" />
		<edge from-layer="4779" from-port="1" to-layer="4780" to-port="1" />
		<edge from-layer="4780" from-port="2" to-layer="4781" to-port="1" />
		<edge from-layer="4781" from-port="2" to-layer="4782" to-port="0" />
		<edge from-layer="4782" from-port="1" to-layer="4784" to-port="0" />
		<edge from-layer="4783" from-port="3" to-layer="4784" to-port="1" />
		<edge from-layer="4784" from-port="2" to-layer="4786" to-port="0" />
		<edge from-layer="4785" from-port="0" to-layer="4786" to-port="1" />
		<edge from-layer="4786" from-port="2" to-layer="4788" to-port="0" />
		<edge from-layer="4787" from-port="0" to-layer="4788" to-port="1" />
		<edge from-layer="4788" from-port="2" to-layer="4789" to-port="0" />
		<edge from-layer="4789" from-port="2" to-layer="4792" to-port="0" />
		<edge from-layer="4790" from-port="0" to-layer="4791" to-port="0" />
		<edge from-layer="4791" from-port="1" to-layer="4792" to-port="1" />
		<edge from-layer="4792" from-port="2" to-layer="4826" to-port="0" />
		<edge from-layer="4793" from-port="0" to-layer="4794" to-port="1" />
		<edge from-layer="4794" from-port="2" to-layer="4797" to-port="0" />
		<edge from-layer="4795" from-port="0" to-layer="4796" to-port="0" />
		<edge from-layer="4796" from-port="1" to-layer="4797" to-port="1" />
		<edge from-layer="4797" from-port="2" to-layer="4800" to-port="0" />
		<edge from-layer="4798" from-port="0" to-layer="4799" to-port="0" />
		<edge from-layer="4799" from-port="1" to-layer="4800" to-port="1" />
		<edge from-layer="4800" from-port="2" to-layer="4801" to-port="0" />
		<edge from-layer="4801" from-port="2" to-layer="4804" to-port="0" />
		<edge from-layer="4802" from-port="0" to-layer="4803" to-port="0" />
		<edge from-layer="4803" from-port="1" to-layer="4804" to-port="1" />
		<edge from-layer="4804" from-port="2" to-layer="4805" to-port="0" />
		<edge from-layer="4805" from-port="1" to-layer="4806" to-port="0" />
		<edge from-layer="4806" from-port="2" to-layer="4809" to-port="0" />
		<edge from-layer="4807" from-port="0" to-layer="4808" to-port="0" />
		<edge from-layer="4808" from-port="1" to-layer="4809" to-port="1" />
		<edge from-layer="4809" from-port="2" to-layer="4810" to-port="0" />
		<edge from-layer="4810" from-port="1" to-layer="4811" to-port="0" />
		<edge from-layer="4811" from-port="2" to-layer="4814" to-port="0" />
		<edge from-layer="4812" from-port="0" to-layer="4813" to-port="0" />
		<edge from-layer="4813" from-port="1" to-layer="4814" to-port="1" />
		<edge from-layer="4814" from-port="2" to-layer="4815" to-port="0" />
		<edge from-layer="4815" from-port="1" to-layer="4816" to-port="0" />
		<edge from-layer="4816" from-port="2" to-layer="4819" to-port="0" />
		<edge from-layer="4817" from-port="0" to-layer="4818" to-port="0" />
		<edge from-layer="4818" from-port="1" to-layer="4819" to-port="1" />
		<edge from-layer="4819" from-port="2" to-layer="4820" to-port="0" />
		<edge from-layer="4820" from-port="1" to-layer="4822" to-port="0" />
		<edge from-layer="4821" from-port="0" to-layer="4822" to-port="1" />
		<edge from-layer="4822" from-port="2" to-layer="4823" to-port="0" />
		<edge from-layer="4823" from-port="1" to-layer="4824" to-port="0" />
		<edge from-layer="4824" from-port="3" to-layer="4825" to-port="0" />
		<edge from-layer="4824" from-port="3" to-layer="4968" to-port="0" />
		<edge from-layer="4825" from-port="2" to-layer="4826" to-port="1" />
		<edge from-layer="4826" from-port="2" to-layer="4833" to-port="0" />
		<edge from-layer="4826" from-port="2" to-layer="4972" to-port="0" />
		<edge from-layer="4827" from-port="0" to-layer="4828" to-port="0" />
		<edge from-layer="4828" from-port="1" to-layer="4832" to-port="0" />
		<edge from-layer="4829" from-port="0" to-layer="4830" to-port="0" />
		<edge from-layer="4830" from-port="1" to-layer="4831" to-port="1" />
		<edge from-layer="4831" from-port="2" to-layer="4832" to-port="1" />
		<edge from-layer="4832" from-port="2" to-layer="4833" to-port="1" />
		<edge from-layer="4833" from-port="2" to-layer="4834" to-port="1" />
		<edge from-layer="4834" from-port="2" to-layer="4835" to-port="1" />
		<edge from-layer="4835" from-port="2" to-layer="4837" to-port="0" />
		<edge from-layer="4835" from-port="2" to-layer="4870" to-port="0" />
		<edge from-layer="4836" from-port="0" to-layer="4837" to-port="1" />
		<edge from-layer="4837" from-port="2" to-layer="4840" to-port="0" />
		<edge from-layer="4838" from-port="0" to-layer="4839" to-port="0" />
		<edge from-layer="4839" from-port="1" to-layer="4840" to-port="1" />
		<edge from-layer="4840" from-port="2" to-layer="4843" to-port="0" />
		<edge from-layer="4841" from-port="0" to-layer="4842" to-port="0" />
		<edge from-layer="4842" from-port="1" to-layer="4843" to-port="1" />
		<edge from-layer="4843" from-port="2" to-layer="4846" to-port="0" />
		<edge from-layer="4844" from-port="0" to-layer="4845" to-port="0" />
		<edge from-layer="4845" from-port="1" to-layer="4846" to-port="1" />
		<edge from-layer="4845" from-port="1" to-layer="4990" to-port="1" />
		<edge from-layer="4846" from-port="2" to-layer="4849" to-port="0" />
		<edge from-layer="4847" from-port="0" to-layer="4848" to-port="0" />
		<edge from-layer="4848" from-port="1" to-layer="4849" to-port="1" />
		<edge from-layer="4849" from-port="2" to-layer="4851" to-port="0" />
		<edge from-layer="4850" from-port="0" to-layer="4851" to-port="1" />
		<edge from-layer="4851" from-port="2" to-layer="4852" to-port="0" />
		<edge from-layer="4852" from-port="2" to-layer="4855" to-port="0" />
		<edge from-layer="4853" from-port="0" to-layer="4854" to-port="0" />
		<edge from-layer="4854" from-port="1" to-layer="4855" to-port="1" />
		<edge from-layer="4854" from-port="1" to-layer="4997" to-port="1" />
		<edge from-layer="4855" from-port="2" to-layer="4858" to-port="0" />
		<edge from-layer="4856" from-port="0" to-layer="4857" to-port="0" />
		<edge from-layer="4857" from-port="1" to-layer="4858" to-port="1" />
		<edge from-layer="4858" from-port="2" to-layer="4860" to-port="0" />
		<edge from-layer="4859" from-port="0" to-layer="4860" to-port="1" />
		<edge from-layer="4860" from-port="2" to-layer="4862" to-port="0" />
		<edge from-layer="4861" from-port="0" to-layer="4862" to-port="1" />
		<edge from-layer="4862" from-port="2" to-layer="4863" to-port="0" />
		<edge from-layer="4863" from-port="1" to-layer="4866" to-port="0" />
		<edge from-layer="4864" from-port="0" to-layer="4865" to-port="0" />
		<edge from-layer="4865" from-port="1" to-layer="5006" to-port="1" />
		<edge from-layer="4865" from-port="1" to-layer="4866" to-port="1" />
		<edge from-layer="4866" from-port="2" to-layer="4869" to-port="0" />
		<edge from-layer="4867" from-port="0" to-layer="4868" to-port="0" />
		<edge from-layer="4868" from-port="1" to-layer="4869" to-port="1" />
		<edge from-layer="4869" from-port="2" to-layer="4870" to-port="1" />
		<edge from-layer="4870" from-port="2" to-layer="4872" to-port="0" />
		<edge from-layer="4871" from-port="0" to-layer="4872" to-port="1" />
		<edge from-layer="4872" from-port="2" to-layer="4875" to-port="0" />
		<edge from-layer="4873" from-port="0" to-layer="4874" to-port="0" />
		<edge from-layer="4874" from-port="1" to-layer="4875" to-port="1" />
		<edge from-layer="4875" from-port="2" to-layer="4878" to-port="0" />
		<edge from-layer="4876" from-port="0" to-layer="4877" to-port="0" />
		<edge from-layer="4877" from-port="1" to-layer="4878" to-port="1" />
		<edge from-layer="4878" from-port="2" to-layer="4882" to-port="0" />
		<edge from-layer="4879" from-port="0" to-layer="4881" to-port="0" />
		<edge from-layer="4880" from-port="0" to-layer="4881" to-port="2" />
		<edge from-layer="4881" from-port="3" to-layer="4882" to-port="1" />
		<edge from-layer="4881" from-port="3" to-layer="5019" to-port="1" />
		<edge from-layer="4882" from-port="2" to-layer="4884" to-port="0" />
		<edge from-layer="4883" from-port="0" to-layer="4884" to-port="1" />
		<edge from-layer="4884" from-port="2" to-layer="4886" to-port="0" />
		<edge from-layer="4884" from-port="2" to-layer="4895" to-port="0" />
		<edge from-layer="4885" from-port="0" to-layer="4886" to-port="1" />
		<edge from-layer="4886" from-port="2" to-layer="4889" to-port="0" />
		<edge from-layer="4887" from-port="0" to-layer="4888" to-port="0" />
		<edge from-layer="4888" from-port="1" to-layer="4889" to-port="1" />
		<edge from-layer="4888" from-port="1" to-layer="5024" to-port="1" />
		<edge from-layer="4889" from-port="2" to-layer="4892" to-port="0" />
		<edge from-layer="4890" from-port="0" to-layer="4891" to-port="0" />
		<edge from-layer="4891" from-port="1" to-layer="4892" to-port="1" />
		<edge from-layer="4892" from-port="2" to-layer="4894" to-port="0" />
		<edge from-layer="4893" from-port="0" to-layer="4894" to-port="1" />
		<edge from-layer="4894" from-port="2" to-layer="4902" to-port="0" />
		<edge from-layer="4895" from-port="1" to-layer="4896" to-port="0" />
		<edge from-layer="4896" from-port="1" to-layer="4899" to-port="0" />
		<edge from-layer="4897" from-port="0" to-layer="4899" to-port="1" />
		<edge from-layer="4898" from-port="0" to-layer="4899" to-port="2" />
		<edge from-layer="4899" from-port="3" to-layer="4901" to-port="0" />
		<edge from-layer="4899" from-port="3" to-layer="4947" to-port="0" />
		<edge from-layer="4899" from-port="3" to-layer="4917" to-port="0" />
		<edge from-layer="4899" from-port="3" to-layer="4932" to-port="0" />
		<edge from-layer="4900" from-port="0" to-layer="4901" to-port="1" />
		<edge from-layer="4901" from-port="3" to-layer="5030" to-port="1" />
		<edge from-layer="4901" from-port="3" to-layer="4902" to-port="1" />
		<edge from-layer="4902" from-port="2" to-layer="4905" to-port="0" />
		<edge from-layer="4903" from-port="1" to-layer="4920" to-port="1" />
		<edge from-layer="4903" from-port="1" to-layer="4905" to-port="1" />
		<edge from-layer="4903" from-port="1" to-layer="5054" to-port="1" />
		<edge from-layer="4903" from-port="1" to-layer="4935" to-port="1" />
		<edge from-layer="4903" from-port="1" to-layer="5032" to-port="1" />
		<edge from-layer="4903" from-port="1" to-layer="5043" to-port="1" />
		<edge from-layer="4904" from-port="0" to-layer="4905" to-port="2" />
		<edge from-layer="4905" from-port="3" to-layer="4949" to-port="0" />
		<edge from-layer="4906" from-port="0" to-layer="4907" to-port="1" />
		<edge from-layer="4907" from-port="2" to-layer="4910" to-port="0" />
		<edge from-layer="4908" from-port="0" to-layer="4909" to-port="0" />
		<edge from-layer="4909" from-port="1" to-layer="4910" to-port="1" />
		<edge from-layer="4909" from-port="1" to-layer="5035" to-port="1" />
		<edge from-layer="4910" from-port="2" to-layer="4913" to-port="0" />
		<edge from-layer="4911" from-port="0" to-layer="4912" to-port="0" />
		<edge from-layer="4912" from-port="1" to-layer="4913" to-port="1" />
		<edge from-layer="4913" from-port="2" to-layer="4915" to-port="0" />
		<edge from-layer="4914" from-port="0" to-layer="4915" to-port="1" />
		<edge from-layer="4915" from-port="2" to-layer="4918" to-port="0" />
		<edge from-layer="4916" from-port="0" to-layer="4917" to-port="1" />
		<edge from-layer="4917" from-port="3" to-layer="4918" to-port="1" />
		<edge from-layer="4917" from-port="3" to-layer="5041" to-port="1" />
		<edge from-layer="4918" from-port="2" to-layer="4920" to-port="0" />
		<edge from-layer="4919" from-port="0" to-layer="4920" to-port="2" />
		<edge from-layer="4920" from-port="3" to-layer="4949" to-port="1" />
		<edge from-layer="4921" from-port="0" to-layer="4922" to-port="1" />
		<edge from-layer="4922" from-port="2" to-layer="4925" to-port="0" />
		<edge from-layer="4923" from-port="0" to-layer="4924" to-port="0" />
		<edge from-layer="4924" from-port="1" to-layer="4925" to-port="1" />
		<edge from-layer="4924" from-port="1" to-layer="5046" to-port="1" />
		<edge from-layer="4925" from-port="2" to-layer="4928" to-port="0" />
		<edge from-layer="4926" from-port="0" to-layer="4927" to-port="0" />
		<edge from-layer="4927" from-port="1" to-layer="4928" to-port="1" />
		<edge from-layer="4928" from-port="2" to-layer="4930" to-port="0" />
		<edge from-layer="4929" from-port="0" to-layer="4930" to-port="1" />
		<edge from-layer="4930" from-port="2" to-layer="4933" to-port="0" />
		<edge from-layer="4931" from-port="0" to-layer="4932" to-port="1" />
		<edge from-layer="4932" from-port="3" to-layer="5052" to-port="1" />
		<edge from-layer="4932" from-port="3" to-layer="4933" to-port="1" />
		<edge from-layer="4933" from-port="2" to-layer="4935" to-port="0" />
		<edge from-layer="4934" from-port="0" to-layer="4935" to-port="2" />
		<edge from-layer="4935" from-port="3" to-layer="4949" to-port="2" />
		<edge from-layer="4936" from-port="0" to-layer="4937" to-port="1" />
		<edge from-layer="4937" from-port="2" to-layer="4940" to-port="0" />
		<edge from-layer="4938" from-port="0" to-layer="4939" to-port="0" />
		<edge from-layer="4939" from-port="1" to-layer="5057" to-port="1" />
		<edge from-layer="4939" from-port="1" to-layer="4940" to-port="1" />
		<edge from-layer="4940" from-port="2" to-layer="4943" to-port="0" />
		<edge from-layer="4941" from-port="0" to-layer="4942" to-port="0" />
		<edge from-layer="4942" from-port="1" to-layer="4943" to-port="1" />
		<edge from-layer="4943" from-port="2" to-layer="4945" to-port="0" />
		<edge from-layer="4944" from-port="0" to-layer="4945" to-port="1" />
		<edge from-layer="4945" from-port="2" to-layer="4948" to-port="0" />
		<edge from-layer="4946" from-port="0" to-layer="4947" to-port="1" />
		<edge from-layer="4947" from-port="3" to-layer="4948" to-port="1" />
		<edge from-layer="4947" from-port="3" to-layer="5063" to-port="1" />
		<edge from-layer="4948" from-port="2" to-layer="4949" to-port="3" />
		<edge from-layer="4949" from-port="4" to-layer="4952" to-port="0" />
		<edge from-layer="4950" from-port="0" to-layer="4951" to-port="0" />
		<edge from-layer="4951" from-port="1" to-layer="4952" to-port="1" />
		<edge from-layer="4952" from-port="2" to-layer="4955" to-port="0" />
		<edge from-layer="4953" from-port="0" to-layer="4954" to-port="0" />
		<edge from-layer="4954" from-port="1" to-layer="4955" to-port="1" />
		<edge from-layer="4955" from-port="2" to-layer="4956" to-port="0" />
		<edge from-layer="4956" from-port="1" to-layer="4959" to-port="0" />
		<edge from-layer="4957" from-port="0" to-layer="4958" to-port="0" />
		<edge from-layer="4958" from-port="1" to-layer="5072" to-port="1" />
		<edge from-layer="4958" from-port="1" to-layer="4959" to-port="1" />
		<edge from-layer="4959" from-port="2" to-layer="4962" to-port="0" />
		<edge from-layer="4960" from-port="0" to-layer="4961" to-port="0" />
		<edge from-layer="4961" from-port="1" to-layer="4962" to-port="1" />
		<edge from-layer="4962" from-port="2" to-layer="5080" to-port="0" />
		<edge from-layer="4962" from-port="2" to-layer="4963" to-port="1" />
		<edge from-layer="4963" from-port="2" to-layer="5077" to-port="0" />
		<edge from-layer="4964" from-port="0" to-layer="4965" to-port="0" />
		<edge from-layer="4965" from-port="1" to-layer="5076" to-port="0" />
		<edge from-layer="4966" from-port="0" to-layer="4967" to-port="0" />
		<edge from-layer="4967" from-port="1" to-layer="4968" to-port="1" />
		<edge from-layer="4968" from-port="2" to-layer="4969" to-port="0" />
		<edge from-layer="4969" from-port="2" to-layer="4970" to-port="0" />
		<edge from-layer="4970" from-port="2" to-layer="4971" to-port="0" />
		<edge from-layer="4971" from-port="1" to-layer="4977" to-port="0" />
		<edge from-layer="4971" from-port="1" to-layer="4972" to-port="1" />
		<edge from-layer="4972" from-port="2" to-layer="4980" to-port="0" />
		<edge from-layer="4973" from-port="0" to-layer="4974" to-port="0" />
		<edge from-layer="4974" from-port="1" to-layer="4978" to-port="0" />
		<edge from-layer="4975" from-port="0" to-layer="4976" to-port="0" />
		<edge from-layer="4976" from-port="1" to-layer="4977" to-port="1" />
		<edge from-layer="4977" from-port="2" to-layer="4978" to-port="1" />
		<edge from-layer="4978" from-port="2" to-layer="4979" to-port="1" />
		<edge from-layer="4979" from-port="2" to-layer="4980" to-port="1" />
		<edge from-layer="4980" from-port="2" to-layer="4981" to-port="1" />
		<edge from-layer="4981" from-port="2" to-layer="4983" to-port="0" />
		<edge from-layer="4981" from-port="2" to-layer="5010" to-port="0" />
		<edge from-layer="4982" from-port="0" to-layer="4983" to-port="1" />
		<edge from-layer="4983" from-port="2" to-layer="4986" to-port="0" />
		<edge from-layer="4984" from-port="0" to-layer="4985" to-port="0" />
		<edge from-layer="4985" from-port="1" to-layer="4986" to-port="1" />
		<edge from-layer="4986" from-port="2" to-layer="4989" to-port="0" />
		<edge from-layer="4987" from-port="0" to-layer="4988" to-port="0" />
		<edge from-layer="4988" from-port="1" to-layer="4989" to-port="1" />
		<edge from-layer="4989" from-port="2" to-layer="4990" to-port="0" />
		<edge from-layer="4990" from-port="2" to-layer="4993" to-port="0" />
		<edge from-layer="4991" from-port="0" to-layer="4992" to-port="0" />
		<edge from-layer="4992" from-port="1" to-layer="4993" to-port="1" />
		<edge from-layer="4993" from-port="2" to-layer="4995" to-port="0" />
		<edge from-layer="4994" from-port="0" to-layer="4995" to-port="1" />
		<edge from-layer="4995" from-port="2" to-layer="4996" to-port="0" />
		<edge from-layer="4996" from-port="2" to-layer="4997" to-port="0" />
		<edge from-layer="4997" from-port="2" to-layer="5000" to-port="0" />
		<edge from-layer="4998" from-port="0" to-layer="4999" to-port="0" />
		<edge from-layer="4999" from-port="1" to-layer="5000" to-port="1" />
		<edge from-layer="5000" from-port="2" to-layer="5002" to-port="0" />
		<edge from-layer="5001" from-port="0" to-layer="5002" to-port="1" />
		<edge from-layer="5002" from-port="2" to-layer="5004" to-port="0" />
		<edge from-layer="5003" from-port="0" to-layer="5004" to-port="1" />
		<edge from-layer="5004" from-port="2" to-layer="5005" to-port="0" />
		<edge from-layer="5005" from-port="1" to-layer="5006" to-port="0" />
		<edge from-layer="5006" from-port="2" to-layer="5009" to-port="0" />
		<edge from-layer="5007" from-port="0" to-layer="5008" to-port="0" />
		<edge from-layer="5008" from-port="1" to-layer="5009" to-port="1" />
		<edge from-layer="5009" from-port="2" to-layer="5010" to-port="1" />
		<edge from-layer="5010" from-port="2" to-layer="5012" to-port="0" />
		<edge from-layer="5011" from-port="0" to-layer="5012" to-port="1" />
		<edge from-layer="5012" from-port="2" to-layer="5015" to-port="0" />
		<edge from-layer="5013" from-port="0" to-layer="5014" to-port="0" />
		<edge from-layer="5014" from-port="1" to-layer="5015" to-port="1" />
		<edge from-layer="5015" from-port="2" to-layer="5018" to-port="0" />
		<edge from-layer="5016" from-port="0" to-layer="5017" to-port="0" />
		<edge from-layer="5017" from-port="1" to-layer="5018" to-port="1" />
		<edge from-layer="5018" from-port="2" to-layer="5019" to-port="0" />
		<edge from-layer="5019" from-port="2" to-layer="5021" to-port="0" />
		<edge from-layer="5020" from-port="0" to-layer="5021" to-port="1" />
		<edge from-layer="5021" from-port="2" to-layer="5023" to-port="0" />
		<edge from-layer="5022" from-port="0" to-layer="5023" to-port="1" />
		<edge from-layer="5023" from-port="2" to-layer="5024" to-port="0" />
		<edge from-layer="5024" from-port="2" to-layer="5027" to-port="0" />
		<edge from-layer="5025" from-port="0" to-layer="5026" to-port="0" />
		<edge from-layer="5026" from-port="1" to-layer="5027" to-port="1" />
		<edge from-layer="5027" from-port="2" to-layer="5029" to-port="0" />
		<edge from-layer="5028" from-port="0" to-layer="5029" to-port="1" />
		<edge from-layer="5029" from-port="2" to-layer="5030" to-port="0" />
		<edge from-layer="5030" from-port="2" to-layer="5032" to-port="0" />
		<edge from-layer="5031" from-port="0" to-layer="5032" to-port="2" />
		<edge from-layer="5032" from-port="3" to-layer="5064" to-port="0" />
		<edge from-layer="5033" from-port="0" to-layer="5034" to-port="1" />
		<edge from-layer="5034" from-port="2" to-layer="5035" to-port="0" />
		<edge from-layer="5035" from-port="2" to-layer="5038" to-port="0" />
		<edge from-layer="5036" from-port="0" to-layer="5037" to-port="0" />
		<edge from-layer="5037" from-port="1" to-layer="5038" to-port="1" />
		<edge from-layer="5038" from-port="2" to-layer="5040" to-port="0" />
		<edge from-layer="5039" from-port="0" to-layer="5040" to-port="1" />
		<edge from-layer="5040" from-port="2" to-layer="5041" to-port="0" />
		<edge from-layer="5041" from-port="2" to-layer="5043" to-port="0" />
		<edge from-layer="5042" from-port="0" to-layer="5043" to-port="2" />
		<edge from-layer="5043" from-port="3" to-layer="5064" to-port="1" />
		<edge from-layer="5044" from-port="0" to-layer="5045" to-port="1" />
		<edge from-layer="5045" from-port="2" to-layer="5046" to-port="0" />
		<edge from-layer="5046" from-port="2" to-layer="5049" to-port="0" />
		<edge from-layer="5047" from-port="0" to-layer="5048" to-port="0" />
		<edge from-layer="5048" from-port="1" to-layer="5049" to-port="1" />
		<edge from-layer="5049" from-port="2" to-layer="5051" to-port="0" />
		<edge from-layer="5050" from-port="0" to-layer="5051" to-port="1" />
		<edge from-layer="5051" from-port="2" to-layer="5052" to-port="0" />
		<edge from-layer="5052" from-port="2" to-layer="5054" to-port="0" />
		<edge from-layer="5053" from-port="0" to-layer="5054" to-port="2" />
		<edge from-layer="5054" from-port="3" to-layer="5064" to-port="2" />
		<edge from-layer="5055" from-port="0" to-layer="5056" to-port="1" />
		<edge from-layer="5056" from-port="2" to-layer="5057" to-port="0" />
		<edge from-layer="5057" from-port="2" to-layer="5060" to-port="0" />
		<edge from-layer="5058" from-port="0" to-layer="5059" to-port="0" />
		<edge from-layer="5059" from-port="1" to-layer="5060" to-port="1" />
		<edge from-layer="5060" from-port="2" to-layer="5062" to-port="0" />
		<edge from-layer="5061" from-port="0" to-layer="5062" to-port="1" />
		<edge from-layer="5062" from-port="2" to-layer="5063" to-port="0" />
		<edge from-layer="5063" from-port="2" to-layer="5064" to-port="3" />
		<edge from-layer="5064" from-port="4" to-layer="5067" to-port="0" />
		<edge from-layer="5065" from-port="0" to-layer="5066" to-port="0" />
		<edge from-layer="5066" from-port="1" to-layer="5067" to-port="1" />
		<edge from-layer="5067" from-port="2" to-layer="5070" to-port="0" />
		<edge from-layer="5068" from-port="0" to-layer="5069" to-port="0" />
		<edge from-layer="5069" from-port="1" to-layer="5070" to-port="1" />
		<edge from-layer="5070" from-port="2" to-layer="5071" to-port="0" />
		<edge from-layer="5071" from-port="1" to-layer="5072" to-port="0" />
		<edge from-layer="5072" from-port="2" to-layer="5075" to-port="0" />
		<edge from-layer="5073" from-port="0" to-layer="5074" to-port="0" />
		<edge from-layer="5074" from-port="1" to-layer="5075" to-port="1" />
		<edge from-layer="5075" from-port="2" to-layer="5076" to-port="1" />
		<edge from-layer="5075" from-port="2" to-layer="5079" to-port="0" />
		<edge from-layer="5076" from-port="2" to-layer="5077" to-port="1" />
		<edge from-layer="5077" from-port="2" to-layer="5078" to-port="0" />
	</edges>
	<rt_info>
		<Runtime_version value="2025.0.0-17942-1f68be9f594-releases/2025/0" />
		<conversion_parameters>
			<framework value="pytorch" />
			<is_python_object value="True" />
		</conversion_parameters>
	</rt_info>
</net>
